…
I1106 17:47:47.954885 80602 net.cpp:325] The NetState phase (0) differed from the phase (1) specified by a rule in layer mnist
I1106 17:47:47.954898 80602 net.cpp:325] The NetState phase (0) differed from the phase (1) specified by a rule in layer accuracy
I1106 17:47:47.954965 80602 net.cpp:63] Initializing net from parameters: 
name: "LeNet"
state {
  phase: TRAIN
  level: 0
  stage: ""
}
layer {
  name: "mnist"
  type: "Data"
  top: "data"
  top: "label"
  include {
    phase: TRAIN
  }
  transform_param {
    scale: 0.00390625
  }
  data_param {
    source: "examples/mnist/mnist_train_lmdb"
    batch_size: 64
    backend: LMDB
  }
}
layer {
  name: "conv1"
  type: "Convolution"
  bottom: "data"
  top: "conv1"
  param {
    lr_mult: 1
  }
  param {
    lr_mult: 2
  }
  convolution_param {
    num_output: 20
    kernel_size: 5
    stride: 1
    weight_filler {
      type: "xavier"
    }
    bias_filler {
      type: "constant"
    }
    engine: CAFFE
  }
}
layer {
  name: "pool1"
  type: "Pooling"
  bottom: "conv1"
  top: "pool1"
  pooling_param {
    pool: MAX
    kernel_size: 2
    stride: 2
  }
}
layer {
  name: "conv2"
  type: "Convolution"
  bottom: "pool1"
  top: "conv2"
  param {
    lr_mult: 1
  }
  param {
    lr_mult: 2
  }
  convolution_param {
    num_output: 50
    kernel_size: 5
    stride: 1
    weight_filler {
      type: "xavier"
    }
    bias_filler {
      type: "constant"
    }
    engine: CAFFE
  }
}
layer {
  name: "pool2"
  type: "Pooling"
  bottom: "conv2"
  top: "pool2"
  pooling_param {
    pool: MAX
    kernel_size: 2
    stride: 2
  }
}
layer {
  name: "ip1"
  type: "InnerProduct"
  bottom: "pool2"
  top: "ip1"
  param {
    lr_mult: 1
  }
  param {
    lr_mult: 2
  }
  inner_product_param {
    num_output: 500
    weight_filler {
      type: "xavier"
    }
    bias_filler {
      type: "constant"
    }
  }
}
layer {
  name: "relu1"
  type: "ReLU"
  bottom: "ip1"
  top: "ip1"
}
layer {
  name: "ip2"
  type: "InnerProduct"
  bottom: "ip1"
  top: "ip2"
  param {
    lr_mult: 1
  }
  param {
    lr_mult: 2
  }
  inner_product_param {
    num_output: 10
    weight_filler {
      type: "xavier"
    }
    bias_filler {
      type: "constant"
    }
  }
}
layer {
  name: "loss"
  type: "SoftmaxWithLoss"
  bottom: "ip2"
  bottom: "label"
  top: "loss"
}
I1106 17:47:47.955060 80602 layer_factory.hpp:77] Creating layer mnist
I1106 17:47:47.955152 80602 db_lmdb.cpp:37] Opened lmdb examples/mnist/mnist_train_lmdb
I1106 17:47:47.955173 80602 net.cpp:108] Creating Layer mnist
I1106 17:47:47.955181 80602 net.cpp:411] mnist -> data
I1106 17:47:47.955201 80602 net.cpp:411] mnist -> label
I1106 17:47:47.955642 80602 data_layer.cpp:45] output data size: 64,1,28,28
I1106 17:47:47.956825 80602 net.cpp:146] Setting up mnist
I1106 17:47:47.956854 80602 net.cpp:153] Top shape: 64 1 28 28 (50176)
I1106 17:47:47.956859 80602 net.cpp:153] Top shape: 64 (64)
I1106 17:47:47.956863 80602 net.cpp:161] Memory required for data: 200960
I1106 17:47:47.956869 80602 layer_factory.hpp:77] Creating layer conv1
I1106 17:47:47.956876 80602 layer_factory.cpp:59] Use CONVOLUTION layer POWERED by CAFFE engine.
I1106 17:47:47.956887 80602 net.cpp:108] Creating Layer conv1
I1106 17:47:47.956904 80602 net.cpp:437] conv1 <- data
I1106 17:47:47.956933 80602 net.cpp:411] conv1 -> conv1
I1106 17:47:47.957646 80602 net.cpp:146] Setting up conv1
I1106 17:47:47.957659 80602 net.cpp:153] Top shape: 64 20 24 24 (737280)
I1106 17:47:47.957662 80602 net.cpp:161] Memory required for data: 3150080
I1106 17:47:47.957676 80602 layer_factory.hpp:77] Creating layer pool1
I1106 17:47:47.957684 80602 net.cpp:108] Creating Layer pool1
I1106 17:47:47.957687 80602 net.cpp:437] pool1 <- conv1
I1106 17:47:47.957693 80602 net.cpp:411] pool1 -> pool1
I1106 17:47:47.957765 80602 net.cpp:146] Setting up pool1
I1106 17:47:47.957773 80602 net.cpp:153] Top shape: 64 20 12 12 (184320)
I1106 17:47:47.957777 80602 net.cpp:161] Memory required for data: 3887360
I1106 17:47:47.957779 80602 layer_factory.hpp:77] Creating layer conv2
I1106 17:47:47.957784 80602 layer_factory.cpp:59] Use CONVOLUTION layer POWERED by CAFFE engine.
I1106 17:47:47.957790 80602 net.cpp:108] Creating Layer conv2
I1106 17:47:47.957794 80602 net.cpp:437] conv2 <- pool1
I1106 17:47:47.957799 80602 net.cpp:411] conv2 -> conv2
I1106 17:47:47.958088 80602 net.cpp:146] Setting up conv2
I1106 17:47:47.958096 80602 net.cpp:153] Top shape: 64 50 8 8 (204800)
I1106 17:47:47.958099 80602 net.cpp:161] Memory required for data: 4706560
I1106 17:47:47.958106 80602 layer_factory.hpp:77] Creating layer pool2
I1106 17:47:47.958112 80602 net.cpp:108] Creating Layer pool2
I1106 17:47:47.958117 80602 net.cpp:437] pool2 <- conv2
I1106 17:47:47.958120 80602 net.cpp:411] pool2 -> pool2
I1106 17:47:47.958150 80602 net.cpp:146] Setting up pool2
I1106 17:47:47.958156 80602 net.cpp:153] Top shape: 64 50 4 4 (51200)
I1106 17:47:47.958158 80602 net.cpp:161] Memory required for data: 4911360
I1106 17:47:47.958161 80602 layer_factory.hpp:77] Creating layer ip1
I1106 17:47:47.958168 80602 net.cpp:108] Creating Layer ip1
I1106 17:47:47.958170 80602 net.cpp:437] ip1 <- pool2
I1106 17:47:47.958176 80602 net.cpp:411] ip1 -> ip1
I1106 17:47:47.960616 80602 net.cpp:146] Setting up ip1
I1106 17:47:47.960628 80602 net.cpp:153] Top shape: 64 500 (32000)
I1106 17:47:47.960633 80602 net.cpp:161] Memory required for data: 5039360
I1106 17:47:47.960639 80602 layer_factory.hpp:77] Creating layer relu1
I1106 17:47:47.960645 80602 net.cpp:108] Creating Layer relu1
I1106 17:47:47.960649 80602 net.cpp:437] relu1 <- ip1
I1106 17:47:47.960654 80602 net.cpp:398] relu1 -> ip1 (in-place)
I1106 17:47:47.960661 80602 net.cpp:146] Setting up relu1
I1106 17:47:47.960665 80602 net.cpp:153] Top shape: 64 500 (32000)
I1106 17:47:47.960669 80602 net.cpp:161] Memory required for data: 5167360
I1106 17:47:47.960680 80602 layer_factory.hpp:77] Creating layer ip2
I1106 17:47:47.960690 80602 net.cpp:108] Creating Layer ip2
I1106 17:47:47.960693 80602 net.cpp:437] ip2 <- ip1
I1106 17:47:47.960700 80602 net.cpp:411] ip2 -> ip2
I1106 17:47:47.961172 80602 net.cpp:146] Setting up ip2
I1106 17:47:47.961185 80602 net.cpp:153] Top shape: 64 10 (640)
I1106 17:47:47.961189 80602 net.cpp:161] Memory required for data: 5169920
I1106 17:47:47.961195 80602 layer_factory.hpp:77] Creating layer loss
I1106 17:47:47.961201 80602 net.cpp:108] Creating Layer loss
I1106 17:47:47.961205 80602 net.cpp:437] loss <- ip2
I1106 17:47:47.961210 80602 net.cpp:437] loss <- label
I1106 17:47:47.961215 80602 net.cpp:411] loss -> loss
I1106 17:47:47.961225 80602 layer_factory.hpp:77] Creating layer loss
…
I1106 17:47:47.961527 80602 solver.cpp:180] Creating test net (#0) specified by net file: examples/mnist/lenet_train_test.prototxt
I1106 17:47:47.961545 80602 net.cpp:325] The NetState phase (1) differed from the phase (0) specified by a rule in layer mnist
I1106 17:47:47.961611 80602 net.cpp:63] Initializing net from parameters: 
name: "LeNet"
state {
  phase: TEST
}
layer {
  name: "mnist"
  type: "Data"
  top: "data"
  top: "label"
  include {
    phase: TEST
  }
  transform_param {
    scale: 0.00390625
  }
  data_param {
    source: "examples/mnist/mnist_test_lmdb"
    batch_size: 100
    backend: LMDB
  }
}
layer {
  name: "conv1"
  type: "Convolution"
  bottom: "data"
  top: "conv1"
  param {
    lr_mult: 1
  }
  param {
    lr_mult: 2
  }
  convolution_param {
    num_output: 20
    kernel_size: 5
    stride: 1
    weight_filler {
      type: "xavier"
    }
    bias_filler {
      type: "constant"
    }
    engine: CAFFE
  }
}
layer {
  name: "pool1"
  type: "Pooling"
  bottom: "conv1"
  top: "pool1"
  pooling_param {
    pool: MAX
    kernel_size: 2
    stride: 2
  }
}
layer {
  name: "conv2"
  type: "Convolution"
  bottom: "pool1"
  top: "conv2"
  param {
    lr_mult: 1
  }
  param {
    lr_mult: 2
  }
  convolution_param {
    num_output: 50
    kernel_size: 5
    stride: 1
    weight_filler {
      type: "xavier"
    }
    bias_filler {
      type: "constant"
    }
    engine: CAFFE
  }
}
layer {
  name: "pool2"
  type: "Pooling"
  bottom: "conv2"
  top: "pool2"
  pooling_param {
    pool: MAX
    kernel_size: 2
    stride: 2
  }
}
layer {
  name: "ip1"
  type: "InnerProduct"
  bottom: "pool2"
  top: "ip1"
  param {
    lr_mult: 1
  }
  param {
    lr_mult: 2
  }
  inner_product_param {
    num_output: 500
    weight_filler {
      type: "xavier"
    }
    bias_filler {
      type: "constant"
    }
  }
}
layer {
  name: "relu1"
  type: "ReLU"
  bottom: "ip1"
  top: "ip1"
}
layer {
  name: "ip2"
  type: "InnerProduct"
  bottom: "ip1"
  top: "ip2"
  param {
    lr_mult: 1
  }
  param {
    lr_mult: 2
  }
  inner_product_param {
    num_output: 10
    weight_filler {
      type: "xavier"
    }
    bias_filler {
      type: "constant"
    }
  }
}
layer {
  name: "accuracy"
  type: "Accuracy"
  bottom: "ip2"
  bottom: "label"
  top: "accuracy"
  include {
    phase: TEST
  }
}
layer {
  name: "loss"
  type: "SoftmaxWithLoss"
  bottom: "ip2"
  bottom: "label"
  top: "loss"
}
I1106 17:47:47.961668 80602 layer_factory.hpp:77] Creating layer mnist
I1106 17:47:47.961706 80602 db_lmdb.cpp:37] Opened lmdb examples/mnist/mnist_test_lmdb
I1106 17:47:47.961719 80602 net.cpp:108] Creating Layer mnist
I1106 17:47:47.961724 80602 net.cpp:411] mnist -> data
I1106 17:47:47.961735 80602 net.cpp:411] mnist -> label
I1106 17:47:47.961807 80602 data_layer.cpp:45] output data size: 100,1,28,28
I1106 17:47:47.963762 80602 net.cpp:146] Setting up mnist
I1106 17:47:47.963774 80602 net.cpp:153] Top shape: 100 1 28 28 (78400)
I1106 17:47:47.963779 80602 net.cpp:153] Top shape: 100 (100)
I1106 17:47:47.963783 80602 net.cpp:161] Memory required for data: 314000
I1106 17:47:47.963785 80602 layer_factory.hpp:77] Creating layer label_mnist_1_split
I1106 17:47:47.963793 80602 net.cpp:108] Creating Layer label_mnist_1_split
I1106 17:47:47.963798 80602 net.cpp:437] label_mnist_1_split <- label
I1106 17:47:47.963802 80602 net.cpp:411] label_mnist_1_split -> label_mnist_1_split_0
I1106 17:47:47.963809 80602 net.cpp:411] label_mnist_1_split -> label_mnist_1_split_1
I1106 17:47:47.963855 80602 net.cpp:146] Setting up label_mnist_1_split
I1106 17:47:47.963862 80602 net.cpp:153] Top shape: 100 (100)
I1106 17:47:47.963873 80602 net.cpp:153] Top shape: 100 (100)
I1106 17:47:47.963877 80602 net.cpp:161] Memory required for data: 314800
I1106 17:47:47.963881 80602 layer_factory.hpp:77] Creating layer conv1
I1106 17:47:47.963886 80602 layer_factory.cpp:59] Use CONVOLUTION layer POWERED by CAFFE engine.
I1106 17:47:47.963893 80602 net.cpp:108] Creating Layer conv1
I1106 17:47:47.963896 80602 net.cpp:437] conv1 <- data
I1106 17:47:47.963903 80602 net.cpp:411] conv1 -> conv1
I1106 17:47:47.964164 80602 net.cpp:146] Setting up conv1
I1106 17:47:47.964172 80602 net.cpp:153] Top shape: 100 20 24 24 (1152000)
I1106 17:47:47.964176 80602 net.cpp:161] Memory required for data: 4922800
I1106 17:47:47.964184 80602 layer_factory.hpp:77] Creating layer pool1
I1106 17:47:47.964190 80602 net.cpp:108] Creating Layer pool1
I1106 17:47:47.964192 80602 net.cpp:437] pool1 <- conv1
I1106 17:47:47.964198 80602 net.cpp:411] pool1 -> pool1
I1106 17:47:47.964232 80602 net.cpp:146] Setting up pool1
I1106 17:47:47.964241 80602 net.cpp:153] Top shape: 100 20 12 12 (288000)
I1106 17:47:47.964243 80602 net.cpp:161] Memory required for data: 6074800
I1106 17:47:47.964246 80602 layer_factory.hpp:77] Creating layer conv2
I1106 17:47:47.964251 80602 layer_factory.cpp:59] Use CONVOLUTION layer POWERED by CAFFE engine.
I1106 17:47:47.964257 80602 net.cpp:108] Creating Layer conv2
I1106 17:47:47.964260 80602 net.cpp:437] conv2 <- pool1
I1106 17:47:47.964265 80602 net.cpp:411] conv2 -> conv2
I1106 17:47:47.964591 80602 net.cpp:146] Setting up conv2
I1106 17:47:47.964599 80602 net.cpp:153] Top shape: 100 50 8 8 (320000)
I1106 17:47:47.964602 80602 net.cpp:161] Memory required for data: 7354800
I1106 17:47:47.964612 80602 layer_factory.hpp:77] Creating layer pool2
I1106 17:47:47.964617 80602 net.cpp:108] Creating Layer pool2
I1106 17:47:47.964620 80602 net.cpp:437] pool2 <- conv2
I1106 17:47:47.964625 80602 net.cpp:411] pool2 -> pool2
I1106 17:47:47.964654 80602 net.cpp:146] Setting up pool2
I1106 17:47:47.964660 80602 net.cpp:153] Top shape: 100 50 4 4 (80000)
I1106 17:47:47.964663 80602 net.cpp:161] Memory required for data: 7674800
I1106 17:47:47.964666 80602 layer_factory.hpp:77] Creating layer ip1
I1106 17:47:47.964673 80602 net.cpp:108] Creating Layer ip1
I1106 17:47:47.964676 80602 net.cpp:437] ip1 <- pool2
I1106 17:47:47.964680 80602 net.cpp:411] ip1 -> ip1
I1106 17:47:47.967185 80602 net.cpp:146] Setting up ip1
I1106 17:47:47.967198 80602 net.cpp:153] Top shape: 100 500 (50000)
I1106 17:47:47.967201 80602 net.cpp:161] Memory required for data: 7874800
I1106 17:47:47.967209 80602 layer_factory.hpp:77] Creating layer relu1
I1106 17:47:47.967216 80602 net.cpp:108] Creating Layer relu1
I1106 17:47:47.967219 80602 net.cpp:437] relu1 <- ip1
I1106 17:47:47.967223 80602 net.cpp:398] relu1 -> ip1 (in-place)
I1106 17:47:47.967229 80602 net.cpp:146] Setting up relu1
I1106 17:47:47.967233 80602 net.cpp:153] Top shape: 100 500 (50000)
I1106 17:47:47.967236 80602 net.cpp:161] Memory required for data: 8074800
I1106 17:47:47.967238 80602 layer_factory.hpp:77] Creating layer ip2
I1106 17:47:47.967245 80602 net.cpp:108] Creating Layer ip2
I1106 17:47:47.967248 80602 net.cpp:437] ip2 <- ip1
I1106 17:47:47.967253 80602 net.cpp:411] ip2 -> ip2
I1106 17:47:47.967365 80602 net.cpp:146] Setting up ip2
I1106 17:47:47.967371 80602 net.cpp:153] Top shape: 100 10 (1000)
I1106 17:47:47.967375 80602 net.cpp:161] Memory required for data: 8078800
I1106 17:47:47.967380 80602 layer_factory.hpp:77] Creating layer ip2_ip2_0_split
I1106 17:47:47.967386 80602 net.cpp:108] Creating Layer ip2_ip2_0_split
I1106 17:47:47.967389 80602 net.cpp:437] ip2_ip2_0_split <- ip2
I1106 17:47:47.967394 80602 net.cpp:411] ip2_ip2_0_split -> ip2_ip2_0_split_0
I1106 17:47:47.967401 80602 net.cpp:411] ip2_ip2_0_split -> ip2_ip2_0_split_1
I1106 17:47:47.967428 80602 net.cpp:146] Setting up ip2_ip2_0_split
I1106 17:47:47.967433 80602 net.cpp:153] Top shape: 100 10 (1000)
I1106 17:47:47.967437 80602 net.cpp:153] Top shape: 100 10 (1000)
I1106 17:47:47.967439 80602 net.cpp:161] Memory required for data: 8086800
I1106 17:47:47.967449 80602 layer_factory.hpp:77] Creating layer accuracy
I1106 17:47:47.967458 80602 net.cpp:108] Creating Layer accuracy
I1106 17:47:47.967466 80602 net.cpp:437] accuracy <- ip2_ip2_0_split_0
I1106 17:47:47.967470 80602 net.cpp:437] accuracy <- label_mnist_1_split_0
I1106 17:47:47.967476 80602 net.cpp:411] accuracy -> accuracy
…
I1106 17:48:42.913977 80626 net.cpp:325] The NetState phase (0) differed from the phase (1) specified by a rule in layer accuracy
I1106 17:48:42.914194 80626 net.cpp:63] Initializing net from parameters: 
name: "CIFAR10_quick"
state {
  phase: TRAIN
  level: 0
  stage: ""
}
layer {
  name: "cifar"
  type: "Data"
  top: "data"
  top: "label"
  include {
    phase: TRAIN
  }
  transform_param {
    mean_file: "examples/cifar10/mean.binaryproto"
  }
  data_param {
    source: "examples/cifar10/cifar10_train_lmdb"
    batch_size: 100
    backend: LMDB
  }
}
layer {
  name: "conv1"
  type: "Convolution"
  bottom: "data"
  top: "conv1"
  param {
    lr_mult: 1
  }
  param {
    lr_mult: 2
  }
  convolution_param {
    num_output: 32
    pad: 2
    kernel_size: 5
    stride: 1
    weight_filler {
      type: "gaussian"
      std: 0.0001
    }
    bias_filler {
      type: "constant"
    }
    engine: CAFFE
  }
}
layer {
  name: "pool1"
  type: "Pooling"
  bottom: "conv1"
  top: "pool1"
  pooling_param {
    pool: MAX
    kernel_size: 3
    stride: 2
  }
}
layer {
  name: "relu1"
  type: "ReLU"
  bottom: "pool1"
  top: "pool1"
}
layer {
  name: "conv2"
  type: "Convolution"
  bottom: "pool1"
  top: "conv2"
  param {
    lr_mult: 1
  }
  param {
    lr_mult: 2
  }
  convolution_param {
    num_output: 32
    pad: 2
    kernel_size: 5
    stride: 1
    weight_filler {
      type: "gaussian"
      std: 0.01
    }
    bias_filler {
      type: "constant"
    }
    engine: CAFFE
  }
}
layer {
  name: "relu2"
  type: "ReLU"
  bottom: "conv2"
  top: "conv2"
}
layer {
  name: "pool2"
  type: "Pooling"
  bottom: "conv2"
  top: "pool2"
  pooling_param {
    pool: AVE
    kernel_size: 3
    stride: 2
  }
}
layer {
  name: "conv3"
  type: "Convolution"
  bottom: "pool2"
  top: "conv3"
  param {
    lr_mult: 1
  }
  param {
    lr_mult: 2
  }
  convolution_param {
    num_output: 64
    pad: 2
    kernel_size: 5
    stride: 1
    weight_filler {
      type: "gaussian"
      std: 0.01
    }
    bias_filler {
      type: "constant"
    }
    engine: CAFFE
  }
}
layer {
  name: "relu3"
  type: "ReLU"
  bottom: "conv3"
  top: "conv3"
}
layer {
  name: "pool3"
  type: "Pooling"
  bottom: "conv3"
  top: "pool3"
  pooling_param {
    pool: AVE
    kernel_size: 3
    stride: 2
  }
}
layer {
  name: "ip1"
  type: "InnerProduct"
  bottom: "pool3"
  top: "ip1"
  param {
    lr_mult: 1
  }
  param {
    lr_mult: 2
  }
  inner_product_param {
    num_output: 64
    weight_filler {
      type: "gaussian"
      std: 0.1
    }
    bias_filler {
      type: "constant"
    }
  }
}
layer {
  name: "ip2"
  type: "InnerProduct"
  bottom: "ip1"
  top: "ip2"
  param {
    lr_mult: 1
  }
  param {
    lr_mult: 2
  }
  inner_product_param {
    num_output: 10
    weight_filler {
      type: "gaussian"
      std: 0.1
    }
    bias_filler {
      type: "constant"
    }
  }
}
layer {
  name: "loss"
  type: "SoftmaxWithLoss"
  bottom: "ip2"
  bottom: "label"
  top: "loss"
}
I1106 17:48:42.914427 80626 layer_factory.hpp:77] Creating layer cifar
I1106 17:48:42.936558 80626 db_lmdb.cpp:37] Opened lmdb examples/cifar10/cifar10_train_lmdb
I1106 17:48:42.950984 80626 net.cpp:108] Creating Layer cifar
I1106 17:48:42.951033 80626 net.cpp:411] cifar -> data
I1106 17:48:42.951086 80626 net.cpp:411] cifar -> label
I1106 17:48:42.951109 80626 data_transformer.cpp:25] Loading mean file from: examples/cifar10/mean.binaryproto
I1106 17:48:42.960516 80626 data_layer.cpp:45] output data size: 100,3,32,32
I1106 17:48:42.968355 80626 net.cpp:146] Setting up cifar
I1106 17:48:42.968390 80626 net.cpp:153] Top shape: 100 3 32 32 (307200)
I1106 17:48:42.968402 80626 net.cpp:153] Top shape: 100 (100)
I1106 17:48:42.968410 80626 net.cpp:161] Memory required for data: 1229200
I1106 17:48:42.968421 80626 layer_factory.hpp:77] Creating layer conv1
I1106 17:48:42.968435 80626 layer_factory.cpp:59] Use CONVOLUTION layer POWERED by CAFFE engine.
I1106 17:48:42.968458 80626 net.cpp:108] Creating Layer conv1
I1106 17:48:42.968471 80626 net.cpp:437] conv1 <- data
I1106 17:48:42.968493 80626 net.cpp:411] conv1 -> conv1
I1106 17:48:42.969831 80626 net.cpp:146] Setting up conv1
I1106 17:48:42.969859 80626 net.cpp:153] Top shape: 100 32 32 32 (3276800)
I1106 17:48:42.969867 80626 net.cpp:161] Memory required for data: 14336400
I1106 17:48:42.969899 80626 layer_factory.hpp:77] Creating layer pool1
I1106 17:48:42.969915 80626 net.cpp:108] Creating Layer pool1
I1106 17:48:42.969923 80626 net.cpp:437] pool1 <- conv1
I1106 17:48:42.969936 80626 net.cpp:411] pool1 -> pool1
I1106 17:48:42.970024 80626 net.cpp:146] Setting up pool1
I1106 17:48:42.970038 80626 net.cpp:153] Top shape: 100 32 16 16 (819200)
I1106 17:48:42.970046 80626 net.cpp:161] Memory required for data: 17613200
I1106 17:48:42.970052 80626 layer_factory.hpp:77] Creating layer relu1
I1106 17:48:42.970065 80626 net.cpp:108] Creating Layer relu1
I1106 17:48:42.970073 80626 net.cpp:437] relu1 <- pool1
I1106 17:48:42.970082 80626 net.cpp:398] relu1 -> pool1 (in-place)
I1106 17:48:42.970095 80626 net.cpp:146] Setting up relu1
I1106 17:48:42.970105 80626 net.cpp:153] Top shape: 100 32 16 16 (819200)
I1106 17:48:42.970111 80626 net.cpp:161] Memory required for data: 20890000
I1106 17:48:42.970118 80626 layer_factory.hpp:77] Creating layer conv2
I1106 17:48:42.970129 80626 layer_factory.cpp:59] Use CONVOLUTION layer POWERED by CAFFE engine.
I1106 17:48:42.970145 80626 net.cpp:108] Creating Layer conv2
I1106 17:48:42.970155 80626 net.cpp:437] conv2 <- pool1
I1106 17:48:42.970168 80626 net.cpp:411] conv2 -> conv2
I1106 17:48:42.971791 80626 net.cpp:146] Setting up conv2
I1106 17:48:42.971814 80626 net.cpp:153] Top shape: 100 32 16 16 (819200)
I1106 17:48:42.971830 80626 net.cpp:161] Memory required for data: 24166800
I1106 17:48:42.971846 80626 layer_factory.hpp:77] Creating layer relu2
I1106 17:48:42.971858 80626 net.cpp:108] Creating Layer relu2
I1106 17:48:42.971868 80626 net.cpp:437] relu2 <- conv2
I1106 17:48:42.971880 80626 net.cpp:398] relu2 -> conv2 (in-place)
I1106 17:48:42.971894 80626 net.cpp:146] Setting up relu2
I1106 17:48:42.971902 80626 net.cpp:153] Top shape: 100 32 16 16 (819200)
I1106 17:48:42.971909 80626 net.cpp:161] Memory required for data: 27443600
I1106 17:48:42.971916 80626 layer_factory.hpp:77] Creating layer pool2
I1106 17:48:42.971926 80626 net.cpp:108] Creating Layer pool2
I1106 17:48:42.971933 80626 net.cpp:437] pool2 <- conv2
I1106 17:48:42.971943 80626 net.cpp:411] pool2 -> pool2
I1106 17:48:42.971982 80626 net.cpp:146] Setting up pool2
I1106 17:48:42.971994 80626 net.cpp:153] Top shape: 100 32 8 8 (204800)
I1106 17:48:42.972002 80626 net.cpp:161] Memory required for data: 28262800
I1106 17:48:42.972008 80626 layer_factory.hpp:77] Creating layer conv3
I1106 17:48:42.972018 80626 layer_factory.cpp:59] Use CONVOLUTION layer POWERED by CAFFE engine.
I1106 17:48:42.972033 80626 net.cpp:108] Creating Layer conv3
I1106 17:48:42.972041 80626 net.cpp:437] conv3 <- pool2
I1106 17:48:42.972055 80626 net.cpp:411] conv3 -> conv3
I1106 17:48:42.973455 80626 net.cpp:146] Setting up conv3
I1106 17:48:42.973474 80626 net.cpp:153] Top shape: 100 64 8 8 (409600)
I1106 17:48:42.973495 80626 net.cpp:161] Memory required for data: 29901200
I1106 17:48:42.973511 80626 layer_factory.hpp:77] Creating layer relu3
I1106 17:48:42.973525 80626 net.cpp:108] Creating Layer relu3
I1106 17:48:42.973532 80626 net.cpp:437] relu3 <- conv3
I1106 17:48:42.973546 80626 net.cpp:398] relu3 -> conv3 (in-place)
I1106 17:48:42.973556 80626 net.cpp:146] Setting up relu3
I1106 17:48:42.973567 80626 net.cpp:153] Top shape: 100 64 8 8 (409600)
I1106 17:48:42.973572 80626 net.cpp:161] Memory required for data: 31539600
I1106 17:48:42.973579 80626 layer_factory.hpp:77] Creating layer pool3
I1106 17:48:42.973589 80626 net.cpp:108] Creating Layer pool3
I1106 17:48:42.973597 80626 net.cpp:437] pool3 <- conv3
I1106 17:48:42.973606 80626 net.cpp:411] pool3 -> pool3
I1106 17:48:42.973647 80626 net.cpp:146] Setting up pool3
I1106 17:48:42.973659 80626 net.cpp:153] Top shape: 100 64 4 4 (102400)
I1106 17:48:42.973666 80626 net.cpp:161] Memory required for data: 31949200
I1106 17:48:42.973673 80626 layer_factory.hpp:77] Creating layer ip1
I1106 17:48:42.973688 80626 net.cpp:108] Creating Layer ip1
I1106 17:48:42.973696 80626 net.cpp:437] ip1 <- pool3
I1106 17:48:42.973707 80626 net.cpp:411] ip1 -> ip1
I1106 17:48:42.975179 80626 net.cpp:146] Setting up ip1
I1106 17:48:42.975195 80626 net.cpp:153] Top shape: 100 64 (6400)
I1106 17:48:42.975203 80626 net.cpp:161] Memory required for data: 31974800
I1106 17:48:42.975214 80626 layer_factory.hpp:77] Creating layer ip2
I1106 17:48:42.975226 80626 net.cpp:108] Creating Layer ip2
I1106 17:48:42.975234 80626 net.cpp:437] ip2 <- ip1
I1106 17:48:42.975247 80626 net.cpp:411] ip2 -> ip2
I1106 17:48:42.975425 80626 net.cpp:146] Setting up ip2
I1106 17:48:42.975438 80626 net.cpp:153] Top shape: 100 10 (1000)
I1106 17:48:42.975445 80626 net.cpp:161] Memory required for data: 31978800
I1106 17:48:42.975459 80626 layer_factory.hpp:77] Creating layer loss
I1106 17:48:42.975471 80626 net.cpp:108] Creating Layer loss
I1106 17:48:42.975478 80626 net.cpp:437] loss <- ip2
I1106 17:48:42.975486 80626 net.cpp:437] loss <- label
I1106 17:48:42.975498 80626 net.cpp:411] loss -> loss
I1106 17:48:42.975513 80626 layer_factory.hpp:77] Creating layer loss
…
I1106 17:48:42.976150 80626 solver.cpp:180] Creating test net (#0) specified by net file: examples/cifar10/cifar10_quick_train_test.prototxt
I1106 17:48:42.976197 80626 net.cpp:325] The NetState phase (1) differed from the phase (0) specified by a rule in layer cifar
I1106 17:48:42.976384 80626 net.cpp:63] Initializing net from parameters: 
name: "CIFAR10_quick"
state {
  phase: TEST
}
layer {
  name: "cifar"
  type: "Data"
  top: "data"
  top: "label"
  include {
    phase: TEST
  }
  transform_param {
    mean_file: "examples/cifar10/mean.binaryproto"
  }
  data_param {
    source: "examples/cifar10/cifar10_test_lmdb"
    batch_size: 100
    backend: LMDB
  }
}
layer {
  name: "conv1"
  type: "Convolution"
  bottom: "data"
  top: "conv1"
  param {
    lr_mult: 1
  }
  param {
    lr_mult: 2
  }
  convolution_param {
    num_output: 32
    pad: 2
    kernel_size: 5
    stride: 1
    weight_filler {
      type: "gaussian"
      std: 0.0001
    }
    bias_filler {
      type: "constant"
    }
    engine: CAFFE
  }
}
layer {
  name: "pool1"
  type: "Pooling"
  bottom: "conv1"
  top: "pool1"
  pooling_param {
    pool: MAX
    kernel_size: 3
    stride: 2
  }
}
layer {
  name: "relu1"
  type: "ReLU"
  bottom: "pool1"
  top: "pool1"
}
layer {
  name: "conv2"
  type: "Convolution"
  bottom: "pool1"
  top: "conv2"
  param {
    lr_mult: 1
  }
  param {
    lr_mult: 2
  }
  convolution_param {
    num_output: 32
    pad: 2
    kernel_size: 5
    stride: 1
    weight_filler {
      type: "gaussian"
      std: 0.01
    }
    bias_filler {
      type: "constant"
    }
    engine: CAFFE
  }
}
layer {
  name: "relu2"
  type: "ReLU"
  bottom: "conv2"
  top: "conv2"
}
layer {
  name: "pool2"
  type: "Pooling"
  bottom: "conv2"
  top: "pool2"
  pooling_param {
    pool: AVE
    kernel_size: 3
    stride: 2
  }
}
layer {
  name: "conv3"
  type: "Convolution"
  bottom: "pool2"
  top: "conv3"
  param {
    lr_mult: 1
  }
  param {
    lr_mult: 2
  }
  convolution_param {
    num_output: 64
    pad: 2
    kernel_size: 5
    stride: 1
    weight_filler {
      type: "gaussian"
      std: 0.01
    }
    bias_filler {
      type: "constant"
    }
    engine: CAFFE
  }
}
layer {
  name: "relu3"
  type: "ReLU"
  bottom: "conv3"
  top: "conv3"
}
layer {
  name: "pool3"
  type: "Pooling"
  bottom: "conv3"
  top: "pool3"
  pooling_param {
    pool: AVE
    kernel_size: 3
    stride: 2
  }
}
layer {
  name: "ip1"
  type: "InnerProduct"
  bottom: "pool3"
  top: "ip1"
  param {
    lr_mult: 1
  }
  param {
    lr_mult: 2
  }
  inner_product_param {
    num_output: 64
    weight_filler {
      type: "gaussian"
      std: 0.1
    }
    bias_filler {
      type: "constant"
    }
  }
}
layer {
  name: "ip2"
  type: "InnerProduct"
  bottom: "ip1"
  top: "ip2"
  param {
    lr_mult: 1
  }
  param {
    lr_mult: 2
  }
  inner_product_param {
    num_output: 10
    weight_filler {
      type: "gaussian"
      std: 0.1
    }
    bias_filler {
      type: "constant"
    }
  }
}
layer {
  name: "accuracy"
  type: "Accuracy"
  bottom: "ip2"
  bottom: "label"
  top: "accuracy"
  include {
    phase: TEST
  }
}
layer {
  name: "loss"
  type: "SoftmaxWithLoss"
  bottom: "ip2"
  bottom: "label"
  top: "loss"
}
I1106 17:48:42.976531 80626 layer_factory.hpp:77] Creating layer cifar
I1106 17:48:43.031152 80626 db_lmdb.cpp:37] Opened lmdb examples/cifar10/cifar10_test_lmdb
I1106 17:48:43.044648 80626 net.cpp:108] Creating Layer cifar
I1106 17:48:43.044683 80626 net.cpp:411] cifar -> data
I1106 17:48:43.044704 80626 net.cpp:411] cifar -> label
I1106 17:48:43.044725 80626 data_transformer.cpp:25] Loading mean file from: examples/cifar10/mean.binaryproto
I1106 17:48:43.045038 80626 data_layer.cpp:45] output data size: 100,3,32,32
I1106 17:48:43.053153 80626 net.cpp:146] Setting up cifar
I1106 17:48:43.053184 80626 net.cpp:153] Top shape: 100 3 32 32 (307200)
I1106 17:48:43.053194 80626 net.cpp:153] Top shape: 100 (100)
I1106 17:48:43.053200 80626 net.cpp:161] Memory required for data: 1229200
I1106 17:48:43.053210 80626 layer_factory.hpp:77] Creating layer label_cifar_1_split
I1106 17:48:43.053225 80626 net.cpp:108] Creating Layer label_cifar_1_split
I1106 17:48:43.053232 80626 net.cpp:437] label_cifar_1_split <- label
I1106 17:48:43.053247 80626 net.cpp:411] label_cifar_1_split -> label_cifar_1_split_0
I1106 17:48:43.053264 80626 net.cpp:411] label_cifar_1_split -> label_cifar_1_split_1
I1106 17:48:43.053347 80626 net.cpp:146] Setting up label_cifar_1_split
I1106 17:48:43.053360 80626 net.cpp:153] Top shape: 100 (100)
I1106 17:48:43.053383 80626 net.cpp:153] Top shape: 100 (100)
I1106 17:48:43.053390 80626 net.cpp:161] Memory required for data: 1230000
I1106 17:48:43.053397 80626 layer_factory.hpp:77] Creating layer conv1
I1106 17:48:43.053408 80626 layer_factory.cpp:59] Use CONVOLUTION layer POWERED by CAFFE engine.
I1106 17:48:43.053426 80626 net.cpp:108] Creating Layer conv1
I1106 17:48:43.053434 80626 net.cpp:437] conv1 <- data
I1106 17:48:43.053449 80626 net.cpp:411] conv1 -> conv1
I1106 17:48:43.054047 80626 net.cpp:146] Setting up conv1
I1106 17:48:43.054067 80626 net.cpp:153] Top shape: 100 32 32 32 (3276800)
I1106 17:48:43.054075 80626 net.cpp:161] Memory required for data: 14337200
I1106 17:48:43.054092 80626 layer_factory.hpp:77] Creating layer pool1
I1106 17:48:43.054105 80626 net.cpp:108] Creating Layer pool1
I1106 17:48:43.054113 80626 net.cpp:437] pool1 <- conv1
I1106 17:48:43.054126 80626 net.cpp:411] pool1 -> pool1
I1106 17:48:43.054193 80626 net.cpp:146] Setting up pool1
I1106 17:48:43.054206 80626 net.cpp:153] Top shape: 100 32 16 16 (819200)
I1106 17:48:43.054213 80626 net.cpp:161] Memory required for data: 17614000
I1106 17:48:43.054219 80626 layer_factory.hpp:77] Creating layer relu1
I1106 17:48:43.054232 80626 net.cpp:108] Creating Layer relu1
I1106 17:48:43.054240 80626 net.cpp:437] relu1 <- pool1
I1106 17:48:43.054250 80626 net.cpp:398] relu1 -> pool1 (in-place)
I1106 17:48:43.054261 80626 net.cpp:146] Setting up relu1
I1106 17:48:43.054270 80626 net.cpp:153] Top shape: 100 32 16 16 (819200)
I1106 17:48:43.054276 80626 net.cpp:161] Memory required for data: 20890800
I1106 17:48:43.054283 80626 layer_factory.hpp:77] Creating layer conv2
I1106 17:48:43.054293 80626 layer_factory.cpp:59] Use CONVOLUTION layer POWERED by CAFFE engine.
I1106 17:48:43.054308 80626 net.cpp:108] Creating Layer conv2
I1106 17:48:43.054316 80626 net.cpp:437] conv2 <- pool1
I1106 17:48:43.054334 80626 net.cpp:411] conv2 -> conv2
I1106 17:48:43.055511 80626 net.cpp:146] Setting up conv2
I1106 17:48:43.055531 80626 net.cpp:153] Top shape: 100 32 16 16 (819200)
I1106 17:48:43.055538 80626 net.cpp:161] Memory required for data: 24167600
I1106 17:48:43.055553 80626 layer_factory.hpp:77] Creating layer relu2
I1106 17:48:43.055564 80626 net.cpp:108] Creating Layer relu2
I1106 17:48:43.055572 80626 net.cpp:437] relu2 <- conv2
I1106 17:48:43.055583 80626 net.cpp:398] relu2 -> conv2 (in-place)
I1106 17:48:43.055593 80626 net.cpp:146] Setting up relu2
I1106 17:48:43.055603 80626 net.cpp:153] Top shape: 100 32 16 16 (819200)
I1106 17:48:43.055609 80626 net.cpp:161] Memory required for data: 27444400
I1106 17:48:43.055624 80626 layer_factory.hpp:77] Creating layer pool2
I1106 17:48:43.055637 80626 net.cpp:108] Creating Layer pool2
I1106 17:48:43.055644 80626 net.cpp:437] pool2 <- conv2
I1106 17:48:43.055655 80626 net.cpp:411] pool2 -> pool2
I1106 17:48:43.055688 80626 net.cpp:146] Setting up pool2
I1106 17:48:43.055703 80626 net.cpp:153] Top shape: 100 32 8 8 (204800)
I1106 17:48:43.055711 80626 net.cpp:161] Memory required for data: 28263600
I1106 17:48:43.055717 80626 layer_factory.hpp:77] Creating layer conv3
I1106 17:48:43.055727 80626 layer_factory.cpp:59] Use CONVOLUTION layer POWERED by CAFFE engine.
I1106 17:48:43.055743 80626 net.cpp:108] Creating Layer conv3
I1106 17:48:43.055752 80626 net.cpp:437] conv3 <- pool2
I1106 17:48:43.055764 80626 net.cpp:411] conv3 -> conv3
I1106 17:48:43.057181 80626 net.cpp:146] Setting up conv3
I1106 17:48:43.057200 80626 net.cpp:153] Top shape: 100 64 8 8 (409600)
I1106 17:48:43.057207 80626 net.cpp:161] Memory required for data: 29902000
I1106 17:48:43.057224 80626 layer_factory.hpp:77] Creating layer relu3
I1106 17:48:43.057235 80626 net.cpp:108] Creating Layer relu3
I1106 17:48:43.057242 80626 net.cpp:437] relu3 <- conv3
I1106 17:48:43.057252 80626 net.cpp:398] relu3 -> conv3 (in-place)
I1106 17:48:43.057265 80626 net.cpp:146] Setting up relu3
I1106 17:48:43.057273 80626 net.cpp:153] Top shape: 100 64 8 8 (409600)
I1106 17:48:43.057281 80626 net.cpp:161] Memory required for data: 31540400
I1106 17:48:43.057301 80626 layer_factory.hpp:77] Creating layer pool3
I1106 17:48:43.057314 80626 net.cpp:108] Creating Layer pool3
I1106 17:48:43.057322 80626 net.cpp:437] pool3 <- conv3
I1106 17:48:43.057332 80626 net.cpp:411] pool3 -> pool3
I1106 17:48:43.057375 80626 net.cpp:146] Setting up pool3
I1106 17:48:43.057387 80626 net.cpp:153] Top shape: 100 64 4 4 (102400)
I1106 17:48:43.057394 80626 net.cpp:161] Memory required for data: 31950000
I1106 17:48:43.057400 80626 layer_factory.hpp:77] Creating layer ip1
I1106 17:48:43.057413 80626 net.cpp:108] Creating Layer ip1
I1106 17:48:43.057421 80626 net.cpp:437] ip1 <- pool3
I1106 17:48:43.057435 80626 net.cpp:411] ip1 -> ip1
I1106 17:48:43.059567 80626 net.cpp:146] Setting up ip1
I1106 17:48:43.059590 80626 net.cpp:153] Top shape: 100 64 (6400)
I1106 17:48:43.059597 80626 net.cpp:161] Memory required for data: 31975600
I1106 17:48:43.059612 80626 layer_factory.hpp:77] Creating layer ip2
I1106 17:48:43.059628 80626 net.cpp:108] Creating Layer ip2
I1106 17:48:43.059636 80626 net.cpp:437] ip2 <- ip1
I1106 17:48:43.059648 80626 net.cpp:411] ip2 -> ip2
I1106 17:48:43.059823 80626 net.cpp:146] Setting up ip2
I1106 17:48:43.059837 80626 net.cpp:153] Top shape: 100 10 (1000)
I1106 17:48:43.059844 80626 net.cpp:161] Memory required for data: 31979600
I1106 17:48:43.059859 80626 layer_factory.hpp:77] Creating layer ip2_ip2_0_split
I1106 17:48:43.059870 80626 net.cpp:108] Creating Layer ip2_ip2_0_split
I1106 17:48:43.059878 80626 net.cpp:437] ip2_ip2_0_split <- ip2
I1106 17:48:43.059891 80626 net.cpp:411] ip2_ip2_0_split -> ip2_ip2_0_split_0
I1106 17:48:43.059906 80626 net.cpp:411] ip2_ip2_0_split -> ip2_ip2_0_split_1
I1106 17:48:43.059969 80626 net.cpp:146] Setting up ip2_ip2_0_split
I1106 17:48:43.059981 80626 net.cpp:153] Top shape: 100 10 (1000)
I1106 17:48:43.059989 80626 net.cpp:153] Top shape: 100 10 (1000)
I1106 17:48:43.059995 80626 net.cpp:161] Memory required for data: 31987600
I1106 17:48:43.060003 80626 layer_factory.hpp:77] Creating layer accuracy
I1106 17:48:43.060014 80626 net.cpp:108] Creating Layer accuracy
I1106 17:48:43.060022 80626 net.cpp:437] accuracy <- ip2_ip2_0_split_0
I1106 17:48:43.060031 80626 net.cpp:437] accuracy <- label_cifar_1_split_0
I1106 17:48:43.060046 80626 net.cpp:411] accuracy -> accuracy
…
I1106 17:51:05.249274 80648 solver.cpp:91] Creating training net from net file: examples/siamese/mnist_siamese_train_test.prototxt
I1106 17:51:05.249841 80648 net.cpp:325] The NetState phase (0) differed from the phase (1) specified by a rule in layer pair_data
I1106 17:51:05.249982 80648 net.cpp:63] Initializing net from parameters: 
name: "mnist_siamese_train_test"
state {
  phase: TRAIN
  level: 0
  stage: ""
}
layer {
  name: "pair_data"
  type: "Data"
  top: "pair_data"
  top: "sim"
  include {
    phase: TRAIN
  }
  transform_param {
    scale: 0.00390625
  }
  data_param {
    source: "examples/siamese/mnist_siamese_train_leveldb"
    batch_size: 64
  }
}
layer {
  name: "slice_pair"
  type: "Slice"
  bottom: "pair_data"
  top: "data"
  top: "data_p"
  slice_param {
    slice_dim: 1
    slice_point: 1
  }
}
layer {
  name: "conv1"
  type: "Convolution"
  bottom: "data"
  top: "conv1"
  param {
    name: "conv1_w"
    lr_mult: 1
  }
  param {
    name: "conv1_b"
    lr_mult: 2
  }
  convolution_param {
    num_output: 20
    kernel_size: 5
    stride: 1
    weight_filler {
      type: "xavier"
    }
    bias_filler {
      type: "constant"
    }
    engine: CAFFE
  }
}
layer {
  name: "pool1"
  type: "Pooling"
  bottom: "conv1"
  top: "pool1"
  pooling_param {
    pool: MAX
    kernel_size: 2
    stride: 2
  }
}
layer {
  name: "conv2"
  type: "Convolution"
  bottom: "pool1"
  top: "conv2"
  param {
    name: "conv2_w"
    lr_mult: 1
  }
  param {
    name: "conv2_b"
    lr_mult: 2
  }
  convolution_param {
    num_output: 50
    kernel_size: 5
    stride: 1
    weight_filler {
      type: "xavier"
    }
    bias_filler {
      type: "constant"
    }
    engine: CAFFE
  }
}
layer {
  name: "pool2"
  type: "Pooling"
  bottom: "conv2"
  top: "pool2"
  pooling_param {
    pool: MAX
    kernel_size: 2
    stride: 2
  }
}
layer {
  name: "ip1"
  type: "InnerProduct"
  bottom: "pool2"
  top: "ip1"
  param {
    name: "ip1_w"
    lr_mult: 1
  }
  param {
    name: "ip1_b"
    lr_mult: 2
  }
  inner_product_param {
    num_output: 500
    weight_filler {
      type: "xavier"
    }
    bias_filler {
      type: "constant"
    }
  }
}
layer {
  name: "relu1"
  type: "ReLU"
  bottom: "ip1"
  top: "ip1"
}
layer {
  name: "ip2"
  type: "InnerProduct"
  bottom: "ip1"
  top: "ip2"
  param {
    name: "ip2_w"
    lr_mult: 1
  }
  param {
    name: "ip2_b"
    lr_mult: 2
  }
  inner_product_param {
    num_output: 10
    weight_filler {
      type: "xavier"
    }
    bias_filler {
      type: "constant"
    }
  }
}
layer {
  name: "feat"
  type: "InnerProduct"
  bottom: "ip2"
  top: "feat"
  param {
    name: "feat_w"
    lr_mult: 1
  }
  param {
    name: "feat_b"
    lr_mult: 2
  }
  inner_product_param {
    num_output: 2
    weight_filler {
      type: "xavier"
    }
    bias_filler {
      type: "constant"
    }
  }
}
layer {
  name: "conv1_p"
  type: "Convolution"
  bottom: "data_p"
  top: "conv1_p"
  param {
    name: "conv1_w"
    lr_mult: 1
  }
  param {
    name: "conv1_b"
    lr_mult: 2
  }
  convolution_param {
    num_output: 20
    kernel_size: 5
    stride: 1
    weight_filler {
      type: "xavier"
    }
    bias_filler {
      type: "constant"
    }
    engine: CAFFE
  }
}
layer {
  name: "pool1_p"
  type: "Pooling"
  bottom: "conv1_p"
  top: "pool1_p"
  pooling_param {
    pool: MAX
    kernel_size: 2
    stride: 2
  }
}
layer {
  name: "conv2_p"
  type: "Convolution"
  bottom: "pool1_p"
  top: "conv2_p"
  param {
    name: "conv2_w"
    lr_mult: 1
  }
  param {
    name: "conv2_b"
    lr_mult: 2
  }
  convolution_param {
    num_output: 50
    kernel_size: 5
    stride: 1
    weight_filler {
      type: "xavier"
    }
    bias_filler {
      type: "constant"
    }
    engine: CAFFE
  }
}
layer {
  name: "pool2_p"
  type: "Pooling"
  bottom: "conv2_p"
  top: "pool2_p"
  pooling_param {
    pool: MAX
    kernel_size: 2
    stride: 2
  }
}
layer {
  name: "ip1_p"
  type: "InnerProduct"
  bottom: "pool2_p"
  top: "ip1_p"
  param {
    name: "ip1_w"
    lr_mult: 1
  }
  param {
    name: "ip1_b"
    lr_mult: 2
  }
  inner_product_param {
    num_output: 500
    weight_filler {
      type: "xavier"
    }
    bias_filler {
      type: "constant"
    }
  }
}
layer {
  name: "relu1_p"
  type: "ReLU"
  bottom: "ip1_p"
  top: "ip1_p"
}
layer {
  name: "ip2_p"
  type: "InnerProduct"
  bottom: "ip1_p"
  top: "ip2_p"
  param {
    name: "ip2_w"
    lr_mult: 1
  }
  param {
    name: "ip2_b"
    lr_mult: 2
  }
  inner_product_param {
    num_output: 10
    weight_filler {
      type: "xavier"
    }
    bias_filler {
      type: "constant"
    }
  }
}
layer {
  name: "feat_p"
  type: "InnerProduct"
  bottom: "ip2_p"
  top: "feat_p"
  param {
    name: "feat_w"
    lr_mult: 1
  }
  param {
    name: "feat_b"
    lr_mult: 2
  }
  inner_product_param {
    num_output: 2
    weight_filler {
      type: "xavier"
    }
    bias_filler {
      type: "constant"
    }
  }
}
layer {
  name: "loss"
  type: "ContrastiveLoss"
  bottom: "feat"
  bottom: "feat_p"
  bottom: "sim"
  top: "loss"
  contrastive_loss_param {
    margin: 1
  }
}
I1106 17:51:05.250248 80648 layer_factory.hpp:77] Creating layer pair_data
I1106 17:51:05.437991 80648 db_leveldb.cpp:18] Opened leveldb examples/siamese/mnist_siamese_train_leveldb
I1106 17:51:05.469080 80648 net.cpp:108] Creating Layer pair_data
I1106 17:51:05.469121 80648 net.cpp:411] pair_data -> pair_data
I1106 17:51:05.469162 80648 net.cpp:411] pair_data -> sim
I1106 17:51:05.470080 80648 data_layer.cpp:45] output data size: 64,2,28,28
I1106 17:51:05.474432 80648 net.cpp:146] Setting up pair_data
I1106 17:51:05.474470 80648 net.cpp:153] Top shape: 64 2 28 28 (100352)
I1106 17:51:05.474483 80648 net.cpp:153] Top shape: 64 (64)
I1106 17:51:05.474490 80648 net.cpp:161] Memory required for data: 401664
I1106 17:51:05.474503 80648 layer_factory.hpp:77] Creating layer slice_pair
I1106 17:51:05.474521 80648 net.cpp:108] Creating Layer slice_pair
I1106 17:51:05.474534 80648 net.cpp:437] slice_pair <- pair_data
I1106 17:51:05.474555 80648 net.cpp:411] slice_pair -> data
I1106 17:51:05.474577 80648 net.cpp:411] slice_pair -> data_p
I1106 17:51:05.474722 80648 net.cpp:146] Setting up slice_pair
I1106 17:51:05.474743 80648 net.cpp:153] Top shape: 64 1 28 28 (50176)
I1106 17:51:05.474753 80648 net.cpp:153] Top shape: 64 1 28 28 (50176)
I1106 17:51:05.474761 80648 net.cpp:161] Memory required for data: 803072
I1106 17:51:05.474769 80648 layer_factory.hpp:77] Creating layer conv1
I1106 17:51:05.474784 80648 layer_factory.cpp:59] Use CONVOLUTION layer POWERED by CAFFE engine.
I1106 17:51:05.474810 80648 net.cpp:108] Creating Layer conv1
I1106 17:51:05.474820 80648 net.cpp:437] conv1 <- data
I1106 17:51:05.474834 80648 net.cpp:411] conv1 -> conv1
I1106 17:51:05.476284 80648 net.cpp:146] Setting up conv1
I1106 17:51:05.476316 80648 net.cpp:153] Top shape: 64 20 24 24 (737280)
I1106 17:51:05.476325 80648 net.cpp:161] Memory required for data: 3752192
I1106 17:51:05.476351 80648 layer_factory.hpp:77] Creating layer pool1
I1106 17:51:05.476369 80648 net.cpp:108] Creating Layer pool1
I1106 17:51:05.476379 80648 net.cpp:437] pool1 <- conv1
I1106 17:51:05.476390 80648 net.cpp:411] pool1 -> pool1
I1106 17:51:05.476480 80648 net.cpp:146] Setting up pool1
I1106 17:51:05.476496 80648 net.cpp:153] Top shape: 64 20 12 12 (184320)
I1106 17:51:05.476505 80648 net.cpp:161] Memory required for data: 4489472
I1106 17:51:05.476531 80648 layer_factory.hpp:77] Creating layer conv2
I1106 17:51:05.476542 80648 layer_factory.cpp:59] Use CONVOLUTION layer POWERED by CAFFE engine.
I1106 17:51:05.476560 80648 net.cpp:108] Creating Layer conv2
I1106 17:51:05.476570 80648 net.cpp:437] conv2 <- pool1
I1106 17:51:05.476588 80648 net.cpp:411] conv2 -> conv2
I1106 17:51:05.478081 80648 net.cpp:146] Setting up conv2
I1106 17:51:05.478111 80648 net.cpp:153] Top shape: 64 50 8 8 (204800)
I1106 17:51:05.478119 80648 net.cpp:161] Memory required for data: 5308672
I1106 17:51:05.478138 80648 layer_factory.hpp:77] Creating layer pool2
I1106 17:51:05.478153 80648 net.cpp:108] Creating Layer pool2
I1106 17:51:05.478163 80648 net.cpp:437] pool2 <- conv2
I1106 17:51:05.478176 80648 net.cpp:411] pool2 -> pool2
I1106 17:51:05.478250 80648 net.cpp:146] Setting up pool2
I1106 17:51:05.478269 80648 net.cpp:153] Top shape: 64 50 4 4 (51200)
I1106 17:51:05.478278 80648 net.cpp:161] Memory required for data: 5513472
I1106 17:51:05.478286 80648 layer_factory.hpp:77] Creating layer ip1
I1106 17:51:05.478301 80648 net.cpp:108] Creating Layer ip1
I1106 17:51:05.478308 80648 net.cpp:437] ip1 <- pool2
I1106 17:51:05.478324 80648 net.cpp:411] ip1 -> ip1
I1106 17:51:05.484313 80648 net.cpp:146] Setting up ip1
I1106 17:51:05.484342 80648 net.cpp:153] Top shape: 64 500 (32000)
I1106 17:51:05.484350 80648 net.cpp:161] Memory required for data: 5641472
I1106 17:51:05.484376 80648 layer_factory.hpp:77] Creating layer relu1
I1106 17:51:05.484390 80648 net.cpp:108] Creating Layer relu1
I1106 17:51:05.484398 80648 net.cpp:437] relu1 <- ip1
I1106 17:51:05.484408 80648 net.cpp:398] relu1 -> ip1 (in-place)
I1106 17:51:05.484423 80648 net.cpp:146] Setting up relu1
I1106 17:51:05.484433 80648 net.cpp:153] Top shape: 64 500 (32000)
I1106 17:51:05.484441 80648 net.cpp:161] Memory required for data: 5769472
I1106 17:51:05.484447 80648 layer_factory.hpp:77] Creating layer ip2
I1106 17:51:05.484464 80648 net.cpp:108] Creating Layer ip2
I1106 17:51:05.484472 80648 net.cpp:437] ip2 <- ip1
I1106 17:51:05.484484 80648 net.cpp:411] ip2 -> ip2
I1106 17:51:05.485389 80648 net.cpp:146] Setting up ip2
I1106 17:51:05.485414 80648 net.cpp:153] Top shape: 64 10 (640)
I1106 17:51:05.485422 80648 net.cpp:161] Memory required for data: 5772032
I1106 17:51:05.485435 80648 layer_factory.hpp:77] Creating layer feat
I1106 17:51:05.485451 80648 net.cpp:108] Creating Layer feat
I1106 17:51:05.485460 80648 net.cpp:437] feat <- ip2
I1106 17:51:05.485474 80648 net.cpp:411] feat -> feat
I1106 17:51:05.485658 80648 net.cpp:146] Setting up feat
I1106 17:51:05.485672 80648 net.cpp:153] Top shape: 64 2 (128)
I1106 17:51:05.485679 80648 net.cpp:161] Memory required for data: 5772544
I1106 17:51:05.485694 80648 layer_factory.hpp:77] Creating layer conv1_p
I1106 17:51:05.485705 80648 layer_factory.cpp:59] Use CONVOLUTION layer POWERED by CAFFE engine.
I1106 17:51:05.485721 80648 net.cpp:108] Creating Layer conv1_p
I1106 17:51:05.485729 80648 net.cpp:437] conv1_p <- data_p
I1106 17:51:05.485744 80648 net.cpp:411] conv1_p -> conv1_p
I1106 17:51:05.486160 80648 net.cpp:146] Setting up conv1_p
I1106 17:51:05.486176 80648 net.cpp:153] Top shape: 64 20 24 24 (737280)
I1106 17:51:05.486183 80648 net.cpp:161] Memory required for data: 8721664
I1106 17:51:05.486192 80648 net.cpp:496] Sharing parameters 'conv1_w' owned by layer 'conv1', param index 0
I1106 17:51:05.486202 80648 net.cpp:496] Sharing parameters 'conv1_b' owned by layer 'conv1', param index 1
I1106 17:51:05.486209 80648 layer_factory.hpp:77] Creating layer pool1_p
I1106 17:51:05.486222 80648 net.cpp:108] Creating Layer pool1_p
I1106 17:51:05.486229 80648 net.cpp:437] pool1_p <- conv1_p
I1106 17:51:05.486241 80648 net.cpp:411] pool1_p -> pool1_p
I1106 17:51:05.486308 80648 net.cpp:146] Setting up pool1_p
I1106 17:51:05.486323 80648 net.cpp:153] Top shape: 64 20 12 12 (184320)
I1106 17:51:05.486331 80648 net.cpp:161] Memory required for data: 9458944
I1106 17:51:05.486338 80648 layer_factory.hpp:77] Creating layer conv2_p
I1106 17:51:05.486347 80648 layer_factory.cpp:59] Use CONVOLUTION layer POWERED by CAFFE engine.
I1106 17:51:05.486374 80648 net.cpp:108] Creating Layer conv2_p
I1106 17:51:05.486383 80648 net.cpp:437] conv2_p <- pool1_p
I1106 17:51:05.486398 80648 net.cpp:411] conv2_p -> conv2_p
I1106 17:51:05.487097 80648 net.cpp:146] Setting up conv2_p
I1106 17:51:05.487112 80648 net.cpp:153] Top shape: 64 50 8 8 (204800)
I1106 17:51:05.487119 80648 net.cpp:161] Memory required for data: 10278144
I1106 17:51:05.487128 80648 net.cpp:496] Sharing parameters 'conv2_w' owned by layer 'conv2', param index 0
I1106 17:51:05.487138 80648 net.cpp:496] Sharing parameters 'conv2_b' owned by layer 'conv2', param index 1
I1106 17:51:05.487144 80648 layer_factory.hpp:77] Creating layer pool2_p
I1106 17:51:05.487157 80648 net.cpp:108] Creating Layer pool2_p
I1106 17:51:05.487165 80648 net.cpp:437] pool2_p <- conv2_p
I1106 17:51:05.487176 80648 net.cpp:411] pool2_p -> pool2_p
I1106 17:51:05.487242 80648 net.cpp:146] Setting up pool2_p
I1106 17:51:05.487256 80648 net.cpp:153] Top shape: 64 50 4 4 (51200)
I1106 17:51:05.487262 80648 net.cpp:161] Memory required for data: 10482944
I1106 17:51:05.487269 80648 layer_factory.hpp:77] Creating layer ip1_p
I1106 17:51:05.487280 80648 net.cpp:108] Creating Layer ip1_p
I1106 17:51:05.487291 80648 net.cpp:437] ip1_p <- pool2_p
I1106 17:51:05.487303 80648 net.cpp:411] ip1_p -> ip1_p
I1106 17:51:05.493041 80648 net.cpp:146] Setting up ip1_p
I1106 17:51:05.493073 80648 net.cpp:153] Top shape: 64 500 (32000)
I1106 17:51:05.493080 80648 net.cpp:161] Memory required for data: 10610944
I1106 17:51:05.493089 80648 net.cpp:496] Sharing parameters 'ip1_w' owned by layer 'ip1', param index 0
I1106 17:51:05.493098 80648 net.cpp:496] Sharing parameters 'ip1_b' owned by layer 'ip1', param index 1
I1106 17:51:05.493105 80648 layer_factory.hpp:77] Creating layer relu1_p
I1106 17:51:05.493116 80648 net.cpp:108] Creating Layer relu1_p
I1106 17:51:05.493124 80648 net.cpp:437] relu1_p <- ip1_p
I1106 17:51:05.493136 80648 net.cpp:398] relu1_p -> ip1_p (in-place)
I1106 17:51:05.493149 80648 net.cpp:146] Setting up relu1_p
I1106 17:51:05.493158 80648 net.cpp:153] Top shape: 64 500 (32000)
I1106 17:51:05.493165 80648 net.cpp:161] Memory required for data: 10738944
I1106 17:51:05.493170 80648 layer_factory.hpp:77] Creating layer ip2_p
I1106 17:51:05.493185 80648 net.cpp:108] Creating Layer ip2_p
I1106 17:51:05.493193 80648 net.cpp:437] ip2_p <- ip1_p
I1106 17:51:05.493204 80648 net.cpp:411] ip2_p -> ip2_p
I1106 17:51:05.493436 80648 net.cpp:146] Setting up ip2_p
I1106 17:51:05.493450 80648 net.cpp:153] Top shape: 64 10 (640)
I1106 17:51:05.493456 80648 net.cpp:161] Memory required for data: 10741504
I1106 17:51:05.493469 80648 net.cpp:496] Sharing parameters 'ip2_w' owned by layer 'ip2', param index 0
I1106 17:51:05.493479 80648 net.cpp:496] Sharing parameters 'ip2_b' owned by layer 'ip2', param index 1
I1106 17:51:05.493486 80648 layer_factory.hpp:77] Creating layer feat_p
I1106 17:51:05.493497 80648 net.cpp:108] Creating Layer feat_p
I1106 17:51:05.493505 80648 net.cpp:437] feat_p <- ip2_p
I1106 17:51:05.493517 80648 net.cpp:411] feat_p -> feat_p
I1106 17:51:05.493680 80648 net.cpp:146] Setting up feat_p
I1106 17:51:05.493693 80648 net.cpp:153] Top shape: 64 2 (128)
I1106 17:51:05.493700 80648 net.cpp:161] Memory required for data: 10742016
I1106 17:51:05.493707 80648 net.cpp:496] Sharing parameters 'feat_w' owned by layer 'feat', param index 0
I1106 17:51:05.493716 80648 net.cpp:496] Sharing parameters 'feat_b' owned by layer 'feat', param index 1
I1106 17:51:05.493722 80648 layer_factory.hpp:77] Creating layer loss
I1106 17:51:05.493734 80648 net.cpp:108] Creating Layer loss
…
I1106 17:51:05.495404 80648 solver.cpp:180] Creating test net (#0) specified by net file: examples/siamese/mnist_siamese_train_test.prototxt
I1106 17:51:05.495460 80648 net.cpp:325] The NetState phase (1) differed from the phase (0) specified by a rule in layer pair_data
I1106 17:51:05.495723 80648 net.cpp:63] Initializing net from parameters: 
name: "mnist_siamese_train_test"
state {
  phase: TEST
}
layer {
  name: "pair_data"
  type: "Data"
  top: "pair_data"
  top: "sim"
  include {
    phase: TEST
  }
  transform_param {
    scale: 0.00390625
  }
  data_param {
    source: "examples/siamese/mnist_siamese_test_leveldb"
    batch_size: 100
  }
}
layer {
  name: "slice_pair"
  type: "Slice"
  bottom: "pair_data"
  top: "data"
  top: "data_p"
  slice_param {
    slice_dim: 1
    slice_point: 1
  }
}
layer {
  name: "conv1"
  type: "Convolution"
  bottom: "data"
  top: "conv1"
  param {
    name: "conv1_w"
    lr_mult: 1
  }
  param {
    name: "conv1_b"
    lr_mult: 2
  }
  convolution_param {
    num_output: 20
    kernel_size: 5
    stride: 1
    weight_filler {
      type: "xavier"
    }
    bias_filler {
      type: "constant"
    }
    engine: CAFFE
  }
}
layer {
  name: "pool1"
  type: "Pooling"
  bottom: "conv1"
  top: "pool1"
  pooling_param {
    pool: MAX
    kernel_size: 2
    stride: 2
  }
}
layer {
  name: "conv2"
  type: "Convolution"
  bottom: "pool1"
  top: "conv2"
  param {
    name: "conv2_w"
    lr_mult: 1
  }
  param {
    name: "conv2_b"
    lr_mult: 2
  }
  convolution_param {
    num_output: 50
    kernel_size: 5
    stride: 1
    weight_filler {
      type: "xavier"
    }
    bias_filler {
      type: "constant"
    }
    engine: CAFFE
  }
}
layer {
  name: "pool2"
  type: "Pooling"
  bottom: "conv2"
  top: "pool2"
  pooling_param {
    pool: MAX
    kernel_size: 2
    stride: 2
  }
}
layer {
  name: "ip1"
  type: "InnerProduct"
  bottom: "pool2"
  top: "ip1"
  param {
    name: "ip1_w"
    lr_mult: 1
  }
  param {
    name: "ip1_b"
    lr_mult: 2
  }
  inner_product_param {
    num_output: 500
    weight_filler {
      type: "xavier"
    }
    bias_filler {
      type: "constant"
    }
  }
}
layer {
  name: "relu1"
  type: "ReLU"
  bottom: "ip1"
  top: "ip1"
}
layer {
  name: "ip2"
  type: "InnerProduct"
  bottom: "ip1"
  top: "ip2"
  param {
    name: "ip2_w"
    lr_mult: 1
  }
  param {
    name: "ip2_b"
    lr_mult: 2
  }
  inner_product_param {
    num_output: 10
    weight_filler {
      type: "xavier"
    }
    bias_filler {
      type: "constant"
    }
  }
}
layer {
  name: "feat"
  type: "InnerProduct"
  bottom: "ip2"
  top: "feat"
  param {
    name: "feat_w"
    lr_mult: 1
  }
  param {
    name: "feat_b"
    lr_mult: 2
  }
  inner_product_param {
    num_output: 2
    weight_filler {
      type: "xavier"
    }
    bias_filler {
      type: "constant"
    }
  }
}
layer {
  name: "conv1_p"
  type: "Convolution"
  bottom: "data_p"
  top: "conv1_p"
  param {
    name: "conv1_w"
    lr_mult: 1
  }
  param {
    name: "conv1_b"
    lr_mult: 2
  }
  convolution_param {
    num_output: 20
    kernel_size: 5
    stride: 1
    weight_filler {
      type: "xavier"
    }
    bias_filler {
      type: "constant"
    }
    engine: CAFFE
  }
}
layer {
  name: "pool1_p"
  type: "Pooling"
  bottom: "conv1_p"
  top: "pool1_p"
  pooling_param {
    pool: MAX
    kernel_size: 2
    stride: 2
  }
}
layer {
  name: "conv2_p"
  type: "Convolution"
  bottom: "pool1_p"
  top: "conv2_p"
  param {
    name: "conv2_w"
    lr_mult: 1
  }
  param {
    name: "conv2_b"
    lr_mult: 2
  }
  convolution_param {
    num_output: 50
    kernel_size: 5
    stride: 1
    weight_filler {
      type: "xavier"
    }
    bias_filler {
      type: "constant"
    }
    engine: CAFFE
  }
}
layer {
  name: "pool2_p"
  type: "Pooling"
  bottom: "conv2_p"
  top: "pool2_p"
  pooling_param {
    pool: MAX
    kernel_size: 2
    stride: 2
  }
}
layer {
  name: "ip1_p"
  type: "InnerProduct"
  bottom: "pool2_p"
  top: "ip1_p"
  param {
    name: "ip1_w"
    lr_mult: 1
  }
  param {
    name: "ip1_b"
    lr_mult: 2
  }
  inner_product_param {
    num_output: 500
    weight_filler {
      type: "xavier"
    }
    bias_filler {
      type: "constant"
    }
  }
}
layer {
  name: "relu1_p"
  type: "ReLU"
  bottom: "ip1_p"
  top: "ip1_p"
}
layer {
  name: "ip2_p"
  type: "InnerProduct"
  bottom: "ip1_p"
  top: "ip2_p"
  param {
    name: "ip2_w"
    lr_mult: 1
  }
  param {
    name: "ip2_b"
    lr_mult: 2
  }
  inner_product_param {
    num_output: 10
    weight_filler {
      type: "xavier"
    }
    bias_filler {
      type: "constant"
    }
  }
}
layer {
  name: "feat_p"
  type: "InnerProduct"
  bottom: "ip2_p"
  top: "feat_p"
  param {
    name: "feat_w"
    lr_mult: 1
  }
  param {
    name: "feat_b"
    lr_mult: 2
  }
  inner_product_param {
    num_output: 2
    weight_filler {
      type: "xavier"
    }
    bias_filler {
      type: "constant"
    }
  }
}
layer {
  name: "loss"
  type: "ContrastiveLoss"
  bottom: "feat"
  bottom: "feat_p"
  bottom: "sim"
  top: "loss"
  contrastive_loss_param {
    margin: 1
  }
}
I1106 17:51:05.495849 80648 layer_factory.hpp:77] Creating layer pair_data
I1106 17:51:05.580391 80648 db_leveldb.cpp:18] Opened leveldb examples/siamese/mnist_siamese_test_leveldb
I1106 17:51:05.631574 80648 net.cpp:108] Creating Layer pair_data
I1106 17:51:05.631613 80648 net.cpp:411] pair_data -> pair_data
I1106 17:51:05.631633 80648 net.cpp:411] pair_data -> sim
I1106 17:51:05.631850 80648 data_layer.cpp:45] output data size: 100,2,28,28
I1106 17:51:05.639070 80648 net.cpp:146] Setting up pair_data
I1106 17:51:05.639122 80648 net.cpp:153] Top shape: 100 2 28 28 (156800)
I1106 17:51:05.639135 80648 net.cpp:153] Top shape: 100 (100)
I1106 17:51:05.639142 80648 net.cpp:161] Memory required for data: 627600
I1106 17:51:05.639150 80648 layer_factory.hpp:77] Creating layer slice_pair
I1106 17:51:05.639166 80648 net.cpp:108] Creating Layer slice_pair
I1106 17:51:05.639174 80648 net.cpp:437] slice_pair <- pair_data
I1106 17:51:05.639189 80648 net.cpp:411] slice_pair -> data
I1106 17:51:05.639206 80648 net.cpp:411] slice_pair -> data_p
I1106 17:51:05.639369 80648 net.cpp:146] Setting up slice_pair
I1106 17:51:05.639389 80648 net.cpp:153] Top shape: 100 1 28 28 (78400)
I1106 17:51:05.639400 80648 net.cpp:153] Top shape: 100 1 28 28 (78400)
I1106 17:51:05.639406 80648 net.cpp:161] Memory required for data: 1254800
I1106 17:51:05.639430 80648 layer_factory.hpp:77] Creating layer conv1
I1106 17:51:05.639441 80648 layer_factory.cpp:59] Use CONVOLUTION layer POWERED by CAFFE engine.
I1106 17:51:05.639458 80648 net.cpp:108] Creating Layer conv1
I1106 17:51:05.639467 80648 net.cpp:437] conv1 <- data
I1106 17:51:05.639480 80648 net.cpp:411] conv1 -> conv1
I1106 17:51:05.639978 80648 net.cpp:146] Setting up conv1
I1106 17:51:05.639998 80648 net.cpp:153] Top shape: 100 20 24 24 (1152000)
I1106 17:51:05.640007 80648 net.cpp:161] Memory required for data: 5862800
I1106 17:51:05.640023 80648 layer_factory.hpp:77] Creating layer pool1
I1106 17:51:05.640043 80648 net.cpp:108] Creating Layer pool1
I1106 17:51:05.640053 80648 net.cpp:437] pool1 <- conv1
I1106 17:51:05.640064 80648 net.cpp:411] pool1 -> pool1
I1106 17:51:05.640136 80648 net.cpp:146] Setting up pool1
I1106 17:51:05.640148 80648 net.cpp:153] Top shape: 100 20 12 12 (288000)
I1106 17:51:05.640156 80648 net.cpp:161] Memory required for data: 7014800
I1106 17:51:05.640163 80648 layer_factory.hpp:77] Creating layer conv2
I1106 17:51:05.640172 80648 layer_factory.cpp:59] Use CONVOLUTION layer POWERED by CAFFE engine.
I1106 17:51:05.640189 80648 net.cpp:108] Creating Layer conv2
I1106 17:51:05.640198 80648 net.cpp:437] conv2 <- pool1
I1106 17:51:05.640213 80648 net.cpp:411] conv2 -> conv2
I1106 17:51:05.641252 80648 net.cpp:146] Setting up conv2
I1106 17:51:05.641294 80648 net.cpp:153] Top shape: 100 50 8 8 (320000)
I1106 17:51:05.641304 80648 net.cpp:161] Memory required for data: 8294800
I1106 17:51:05.641320 80648 layer_factory.hpp:77] Creating layer pool2
I1106 17:51:05.641336 80648 net.cpp:108] Creating Layer pool2
I1106 17:51:05.641345 80648 net.cpp:437] pool2 <- conv2
I1106 17:51:05.641360 80648 net.cpp:411] pool2 -> pool2
I1106 17:51:05.641432 80648 net.cpp:146] Setting up pool2
I1106 17:51:05.641446 80648 net.cpp:153] Top shape: 100 50 4 4 (80000)
I1106 17:51:05.641453 80648 net.cpp:161] Memory required for data: 8614800
I1106 17:51:05.641461 80648 layer_factory.hpp:77] Creating layer ip1
I1106 17:51:05.641477 80648 net.cpp:108] Creating Layer ip1
I1106 17:51:05.641486 80648 net.cpp:437] ip1 <- pool2
I1106 17:51:05.641500 80648 net.cpp:411] ip1 -> ip1
I1106 17:51:05.647343 80648 net.cpp:146] Setting up ip1
I1106 17:51:05.647372 80648 net.cpp:153] Top shape: 100 500 (50000)
I1106 17:51:05.647382 80648 net.cpp:161] Memory required for data: 8814800
I1106 17:51:05.647398 80648 layer_factory.hpp:77] Creating layer relu1
I1106 17:51:05.647411 80648 net.cpp:108] Creating Layer relu1
I1106 17:51:05.647419 80648 net.cpp:437] relu1 <- ip1
I1106 17:51:05.647434 80648 net.cpp:398] relu1 -> ip1 (in-place)
I1106 17:51:05.647449 80648 net.cpp:146] Setting up relu1
I1106 17:51:05.647459 80648 net.cpp:153] Top shape: 100 500 (50000)
I1106 17:51:05.647465 80648 net.cpp:161] Memory required for data: 9014800
I1106 17:51:05.647472 80648 layer_factory.hpp:77] Creating layer ip2
I1106 17:51:05.647486 80648 net.cpp:108] Creating Layer ip2
I1106 17:51:05.647493 80648 net.cpp:437] ip2 <- ip1
I1106 17:51:05.647508 80648 net.cpp:411] ip2 -> ip2
I1106 17:51:05.647795 80648 net.cpp:146] Setting up ip2
I1106 17:51:05.647811 80648 net.cpp:153] Top shape: 100 10 (1000)
I1106 17:51:05.647817 80648 net.cpp:161] Memory required for data: 9018800
I1106 17:51:05.647828 80648 layer_factory.hpp:77] Creating layer feat
I1106 17:51:05.647842 80648 net.cpp:108] Creating Layer feat
I1106 17:51:05.647850 80648 net.cpp:437] feat <- ip2
I1106 17:51:05.647871 80648 net.cpp:411] feat -> feat
I1106 17:51:05.648167 80648 net.cpp:146] Setting up feat
I1106 17:51:05.648197 80648 net.cpp:153] Top shape: 100 2 (200)
I1106 17:51:05.648205 80648 net.cpp:161] Memory required for data: 9019600
I1106 17:51:05.648223 80648 layer_factory.hpp:77] Creating layer conv1_p
I1106 17:51:05.648234 80648 layer_factory.cpp:59] Use CONVOLUTION layer POWERED by CAFFE engine.
I1106 17:51:05.648258 80648 net.cpp:108] Creating Layer conv1_p
I1106 17:51:05.648267 80648 net.cpp:437] conv1_p <- data_p
I1106 17:51:05.648280 80648 net.cpp:411] conv1_p -> conv1_p
I1106 17:51:05.648711 80648 net.cpp:146] Setting up conv1_p
I1106 17:51:05.648731 80648 net.cpp:153] Top shape: 100 20 24 24 (1152000)
I1106 17:51:05.648738 80648 net.cpp:161] Memory required for data: 13627600
I1106 17:51:05.648751 80648 net.cpp:496] Sharing parameters 'conv1_w' owned by layer 'conv1', param index 0
I1106 17:51:05.648759 80648 net.cpp:496] Sharing parameters 'conv1_b' owned by layer 'conv1', param index 1
I1106 17:51:05.648766 80648 layer_factory.hpp:77] Creating layer pool1_p
I1106 17:51:05.648778 80648 net.cpp:108] Creating Layer pool1_p
I1106 17:51:05.648788 80648 net.cpp:437] pool1_p <- conv1_p
I1106 17:51:05.648802 80648 net.cpp:411] pool1_p -> pool1_p
I1106 17:51:05.648880 80648 net.cpp:146] Setting up pool1_p
I1106 17:51:05.648902 80648 net.cpp:153] Top shape: 100 20 12 12 (288000)
I1106 17:51:05.648910 80648 net.cpp:161] Memory required for data: 14779600
I1106 17:51:05.648917 80648 layer_factory.hpp:77] Creating layer conv2_p
I1106 17:51:05.648927 80648 layer_factory.cpp:59] Use CONVOLUTION layer POWERED by CAFFE engine.
I1106 17:51:05.648947 80648 net.cpp:108] Creating Layer conv2_p
I1106 17:51:05.648955 80648 net.cpp:437] conv2_p <- pool1_p
I1106 17:51:05.648967 80648 net.cpp:411] conv2_p -> conv2_p
I1106 17:51:05.649636 80648 net.cpp:146] Setting up conv2_p
I1106 17:51:05.649652 80648 net.cpp:153] Top shape: 100 50 8 8 (320000)
I1106 17:51:05.649658 80648 net.cpp:161] Memory required for data: 16059600
I1106 17:51:05.649677 80648 net.cpp:496] Sharing parameters 'conv2_w' owned by layer 'conv2', param index 0
I1106 17:51:05.649685 80648 net.cpp:496] Sharing parameters 'conv2_b' owned by layer 'conv2', param index 1
I1106 17:51:05.649693 80648 layer_factory.hpp:77] Creating layer pool2_p
I1106 17:51:05.649705 80648 net.cpp:108] Creating Layer pool2_p
I1106 17:51:05.649718 80648 net.cpp:437] pool2_p <- conv2_p
I1106 17:51:05.649729 80648 net.cpp:411] pool2_p -> pool2_p
I1106 17:51:05.649796 80648 net.cpp:146] Setting up pool2_p
I1106 17:51:05.649811 80648 net.cpp:153] Top shape: 100 50 4 4 (80000)
I1106 17:51:05.649818 80648 net.cpp:161] Memory required for data: 16379600
I1106 17:51:05.649824 80648 layer_factory.hpp:77] Creating layer ip1_p
I1106 17:51:05.649838 80648 net.cpp:108] Creating Layer ip1_p
I1106 17:51:05.649847 80648 net.cpp:437] ip1_p <- pool2_p
I1106 17:51:05.649869 80648 net.cpp:411] ip1_p -> ip1_p
I1106 17:51:05.655258 80648 net.cpp:146] Setting up ip1_p
I1106 17:51:05.655283 80648 net.cpp:153] Top shape: 100 500 (50000)
I1106 17:51:05.655292 80648 net.cpp:161] Memory required for data: 16579600
I1106 17:51:05.655300 80648 net.cpp:496] Sharing parameters 'ip1_w' owned by layer 'ip1', param index 0
I1106 17:51:05.655309 80648 net.cpp:496] Sharing parameters 'ip1_b' owned by layer 'ip1', param index 1
I1106 17:51:05.655316 80648 layer_factory.hpp:77] Creating layer relu1_p
I1106 17:51:05.655328 80648 net.cpp:108] Creating Layer relu1_p
I1106 17:51:05.655334 80648 net.cpp:437] relu1_p <- ip1_p
I1106 17:51:05.655347 80648 net.cpp:398] relu1_p -> ip1_p (in-place)
I1106 17:51:05.655359 80648 net.cpp:146] Setting up relu1_p
I1106 17:51:05.655369 80648 net.cpp:153] Top shape: 100 500 (50000)
I1106 17:51:05.655375 80648 net.cpp:161] Memory required for data: 16779600
I1106 17:51:05.655381 80648 layer_factory.hpp:77] Creating layer ip2_p
I1106 17:51:05.655397 80648 net.cpp:108] Creating Layer ip2_p
I1106 17:51:05.655405 80648 net.cpp:437] ip2_p <- ip1_p
I1106 17:51:05.655416 80648 net.cpp:411] ip2_p -> ip2_p
I1106 17:51:05.655652 80648 net.cpp:146] Setting up ip2_p
I1106 17:51:05.655666 80648 net.cpp:153] Top shape: 100 10 (1000)
I1106 17:51:05.655673 80648 net.cpp:161] Memory required for data: 16783600
I1106 17:51:05.655683 80648 net.cpp:496] Sharing parameters 'ip2_w' owned by layer 'ip2', param index 0
I1106 17:51:05.655691 80648 net.cpp:496] Sharing parameters 'ip2_b' owned by layer 'ip2', param index 1
I1106 17:51:05.655699 80648 layer_factory.hpp:77] Creating layer feat_p
I1106 17:51:05.655712 80648 net.cpp:108] Creating Layer feat_p
I1106 17:51:05.655720 80648 net.cpp:437] feat_p <- ip2_p
I1106 17:51:05.655743 80648 net.cpp:411] feat_p -> feat_p
I1106 17:51:05.655916 80648 net.cpp:146] Setting up feat_p
I1106 17:51:05.655930 80648 net.cpp:153] Top shape: 100 2 (200)
I1106 17:51:05.655936 80648 net.cpp:161] Memory required for data: 16784400
I1106 17:51:05.655943 80648 net.cpp:496] Sharing parameters 'feat_w' owned by layer 'feat', param index 0
I1106 17:51:05.655951 80648 net.cpp:496] Sharing parameters 'feat_b' owned by layer 'feat', param index 1
I1106 17:51:05.655958 80648 layer_factory.hpp:77] Creating layer loss
I1106 17:51:05.655969 80648 net.cpp:108] Creating Layer loss
…
I1106 17:52:47.736284 80671 net.cpp:325] The NetState phase (0) differed from the phase (1) specified by a rule in layer accuracy
I1106 17:52:47.736426 80671 net.cpp:63] Initializing net from parameters: 
name: "CaffeNet"
state {
  phase: TRAIN
  level: 0
  stage: ""
}
layer {
  name: "data"
  type: "Data"
  top: "data"
  top: "label"
  include {
    phase: TRAIN
  }
  transform_param {
    mirror: true
    crop_size: 227
    mean_file: "data/ilsvrc12/imagenet_mean.binaryproto"
  }
  data_param {
    source: "examples/imagenet/ilsvrc12_train_lmdb"
    batch_size: 256
    backend: LMDB
  }
}
layer {
  name: "conv1"
  type: "Convolution"
  bottom: "data"
  top: "conv1"
  param {
    lr_mult: 1
    decay_mult: 1
  }
  param {
    lr_mult: 2
    decay_mult: 0
  }
  convolution_param {
    num_output: 96
    kernel_size: 11
    stride: 4
    weight_filler {
      type: "gaussian"
      std: 0.01
    }
    bias_filler {
      type: "constant"
      value: 0
    }
    engine: CAFFE
  }
}
layer {
  name: "relu1"
  type: "ReLU"
  bottom: "conv1"
  top: "conv1"
}
layer {
  name: "pool1"
  type: "Pooling"
  bottom: "conv1"
  top: "pool1"
  pooling_param {
    pool: MAX
    kernel_size: 3
    stride: 2
  }
}
layer {
  name: "norm1"
  type: "LRN"
  bottom: "pool1"
  top: "norm1"
  lrn_param {
    local_size: 5
    alpha: 0.0001
    beta: 0.75
  }
}
layer {
  name: "conv2"
  type: "Convolution"
  bottom: "norm1"
  top: "conv2"
  param {
    lr_mult: 1
    decay_mult: 1
  }
  param {
    lr_mult: 2
    decay_mult: 0
  }
  convolution_param {
    num_output: 256
    pad: 2
    kernel_size: 5
    group: 2
    weight_filler {
      type: "gaussian"
      std: 0.01
    }
    bias_filler {
      type: "constant"
      value: 1
    }
    engine: CAFFE
  }
}
layer {
  name: "relu2"
  type: "ReLU"
  bottom: "conv2"
  top: "conv2"
}
layer {
  name: "pool2"
  type: "Pooling"
  bottom: "conv2"
  top: "pool2"
  pooling_param {
    pool: MAX
    kernel_size: 3
    stride: 2
  }
}
layer {
  name: "norm2"
  type: "LRN"
  bottom: "pool2"
  top: "norm2"
  lrn_param {
    local_size: 5
    alpha: 0.0001
    beta: 0.75
  }
}
layer {
  name: "conv3"
  type: "Convolution"
  bottom: "norm2"
  top: "conv3"
  param {
    lr_mult: 1
    decay_mult: 1
  }
  param {
    lr_mult: 2
    decay_mult: 0
  }
  convolution_param {
    num_output: 384
    pad: 1
    kernel_size: 3
    weight_filler {
      type: "gaussian"
      std: 0.01
    }
    bias_filler {
      type: "constant"
      value: 0
    }
    engine: CAFFE
  }
}
layer {
  name: "relu3"
  type: "ReLU"
  bottom: "conv3"
  top: "conv3"
}
layer {
  name: "conv4"
  type: "Convolution"
  bottom: "conv3"
  top: "conv4"
  param {
    lr_mult: 1
    decay_mult: 1
  }
  param {
    lr_mult: 2
    decay_mult: 0
  }
  convolution_param {
    num_output: 384
    pad: 1
    kernel_size: 3
    group: 2
    weight_filler {
      type: "gaussian"
      std: 0.01
    }
    bias_filler {
      type: "constant"
      value: 1
    }
    engine: CAFFE
  }
}
layer {
  name: "relu4"
  type: "ReLU"
  bottom: "conv4"
  top: "conv4"
}
layer {
  name: "conv5"
  type: "Convolution"
  bottom: "conv4"
  top: "conv5"
  param {
    lr_mult: 1
    decay_mult: 1
  }
  param {
    lr_mult: 2
    decay_mult: 0
  }
  convolution_param {
    num_output: 256
    pad: 1
    kernel_size: 3
    group: 2
    weight_filler {
      type: "gaussian"
      std: 0.01
    }
    bias_filler {
      type: "constant"
      value: 1
    }
    engine: CAFFE
  }
}
layer {
  name: "relu5"
  type: "ReLU"
  bottom: "conv5"
  top: "conv5"
}
layer {
  name: "pool5"
  type: "Pooling"
  bottom: "conv5"
  top: "pool5"
  pooling_param {
    pool: MAX
    kernel_size: 3
    stride: 2
  }
}
layer {
  name: "fc6"
  type: "InnerProduct"
  bottom: "pool5"
  top: "fc6"
  param {
    lr_mult: 1
    decay_mult: 1
  }
  param {
    lr_mult: 2
    decay_mult: 0
  }
  inner_product_param {
    num_output: 4096
    weight_filler {
      type: "gaussian"
      std: 0.005
    }
    bias_filler {
      type: "constant"
      value: 1
    }
  }
}
layer {
  name: "relu6"
  type: "ReLU"
  bottom: "fc6"
  top: "fc6"
}
layer {
  name: "drop6"
  type: "Dropout"
  bottom: "fc6"
  top: "fc6"
  dropout_param {
    dropout_ratio: 0.5
  }
}
layer {
  name: "fc7"
  type: "InnerProduct"
  bottom: "fc6"
  top: "fc7"
  param {
    lr_mult: 1
    decay_mult: 1
  }
  param {
    lr_mult: 2
    decay_mult: 0
  }
  inner_product_param {
    num_output: 4096
    weight_filler {
      type: "gaussian"
      std: 0.005
    }
    bias_filler {
      type: "constant"
      value: 1
    }
  }
}
layer {
  name: "relu7"
  type: "ReLU"
  bottom: "fc7"
  top: "fc7"
}
layer {
  name: "drop7"
  type: "Dropout"
  bottom: "fc7"
  top: "fc7"
  dropout_param {
    dropout_ratio: 0.5
  }
}
layer {
  name: "fc8"
  type: "InnerProduct"
  bottom: "fc7"
  top: "fc8"
  param {
    lr_mult: 1
    decay_mult: 1
  }
  param {
    lr_mult: 2
    decay_mult: 0
  }
  inner_product_param {
    num_output: 1000
    weight_filler {
      type: "gaussian"
      std: 0.01
    }
    bias_filler {
      type: "constant"
      value: 0
    }
  }
}
layer {
  name: "loss"
  type: "SoftmaxWithLoss"
  bottom: "fc8"
  bottom: "label"
  top: "loss"
}
I1106 17:52:47.736549 80671 layer_factory.hpp:77] Creating layer data
I1106 17:52:47.811693 80671 db_lmdb.cpp:37] Opened lmdb examples/imagenet/ilsvrc12_train_lmdb
I1106 17:52:47.811764 80671 net.cpp:108] Creating Layer data
I1106 17:52:47.811789 80671 net.cpp:411] data -> data
I1106 17:52:47.811830 80671 net.cpp:411] data -> label
I1106 17:52:47.811854 80671 data_transformer.cpp:25] Loading mean file from: data/ilsvrc12/imagenet_mean.binaryproto
I1106 17:52:47.824982 80671 data_layer.cpp:45] output data size: 256,3,227,227
I1106 17:52:48.117360 80671 net.cpp:146] Setting up data
I1106 17:52:48.117401 80671 net.cpp:153] Top shape: 256 3 227 227 (39574272)
I1106 17:52:48.117408 80671 net.cpp:153] Top shape: 256 (256)
I1106 17:52:48.117410 80671 net.cpp:161] Memory required for data: 158298112
I1106 17:52:48.117419 80671 layer_factory.hpp:77] Creating layer conv1
I1106 17:52:48.117429 80671 layer_factory.cpp:59] Use CONVOLUTION layer POWERED by CAFFE engine.
I1106 17:52:48.117441 80671 net.cpp:108] Creating Layer conv1
I1106 17:52:48.117447 80671 net.cpp:437] conv1 <- data
I1106 17:52:48.117458 80671 net.cpp:411] conv1 -> conv1
I1106 17:52:48.118815 80671 net.cpp:146] Setting up conv1
I1106 17:52:48.118829 80671 net.cpp:153] Top shape: 256 96 55 55 (74342400)
I1106 17:52:48.118832 80671 net.cpp:161] Memory required for data: 455667712
I1106 17:52:48.118849 80671 layer_factory.hpp:77] Creating layer relu1
I1106 17:52:48.118856 80671 net.cpp:108] Creating Layer relu1
I1106 17:52:48.118860 80671 net.cpp:437] relu1 <- conv1
I1106 17:52:48.118865 80671 net.cpp:398] relu1 -> conv1 (in-place)
I1106 17:52:48.118871 80671 net.cpp:146] Setting up relu1
I1106 17:52:48.118875 80671 net.cpp:153] Top shape: 256 96 55 55 (74342400)
I1106 17:52:48.118878 80671 net.cpp:161] Memory required for data: 753037312
I1106 17:52:48.118881 80671 layer_factory.hpp:77] Creating layer pool1
I1106 17:52:48.118898 80671 net.cpp:108] Creating Layer pool1
I1106 17:52:48.118902 80671 net.cpp:437] pool1 <- conv1
I1106 17:52:48.118918 80671 net.cpp:411] pool1 -> pool1
I1106 17:52:48.118964 80671 net.cpp:146] Setting up pool1
I1106 17:52:48.118970 80671 net.cpp:153] Top shape: 256 96 27 27 (17915904)
I1106 17:52:48.118973 80671 net.cpp:161] Memory required for data: 824700928
I1106 17:52:48.118976 80671 layer_factory.hpp:77] Creating layer norm1
I1106 17:52:48.118983 80671 net.cpp:108] Creating Layer norm1
I1106 17:52:48.118991 80671 net.cpp:437] norm1 <- pool1
I1106 17:52:48.118996 80671 net.cpp:411] norm1 -> norm1
I1106 17:52:48.119026 80671 net.cpp:146] Setting up norm1
I1106 17:52:48.119032 80671 net.cpp:153] Top shape: 256 96 27 27 (17915904)
I1106 17:52:48.119035 80671 net.cpp:161] Memory required for data: 896364544
I1106 17:52:48.119038 80671 layer_factory.hpp:77] Creating layer conv2
I1106 17:52:48.119042 80671 layer_factory.cpp:59] Use CONVOLUTION layer POWERED by CAFFE engine.
I1106 17:52:48.119048 80671 net.cpp:108] Creating Layer conv2
I1106 17:52:48.119051 80671 net.cpp:437] conv2 <- norm1
I1106 17:52:48.119056 80671 net.cpp:411] conv2 -> conv2
I1106 17:52:48.135110 80671 net.cpp:146] Setting up conv2
I1106 17:52:48.135125 80671 net.cpp:153] Top shape: 256 256 27 27 (47775744)
I1106 17:52:48.135128 80671 net.cpp:161] Memory required for data: 1087467520
I1106 17:52:48.135136 80671 layer_factory.hpp:77] Creating layer relu2
I1106 17:52:48.135143 80671 net.cpp:108] Creating Layer relu2
I1106 17:52:48.135146 80671 net.cpp:437] relu2 <- conv2
I1106 17:52:48.135151 80671 net.cpp:398] relu2 -> conv2 (in-place)
I1106 17:52:48.135156 80671 net.cpp:146] Setting up relu2
I1106 17:52:48.135161 80671 net.cpp:153] Top shape: 256 256 27 27 (47775744)
I1106 17:52:48.135164 80671 net.cpp:161] Memory required for data: 1278570496
I1106 17:52:48.135166 80671 layer_factory.hpp:77] Creating layer pool2
I1106 17:52:48.135171 80671 net.cpp:108] Creating Layer pool2
I1106 17:52:48.135174 80671 net.cpp:437] pool2 <- conv2
I1106 17:52:48.135179 80671 net.cpp:411] pool2 -> pool2
I1106 17:52:48.135210 80671 net.cpp:146] Setting up pool2
I1106 17:52:48.135215 80671 net.cpp:153] Top shape: 256 256 13 13 (11075584)
I1106 17:52:48.135218 80671 net.cpp:161] Memory required for data: 1322872832
I1106 17:52:48.135221 80671 layer_factory.hpp:77] Creating layer norm2
I1106 17:52:48.135227 80671 net.cpp:108] Creating Layer norm2
I1106 17:52:48.135231 80671 net.cpp:437] norm2 <- pool2
I1106 17:52:48.135234 80671 net.cpp:411] norm2 -> norm2
I1106 17:52:48.135259 80671 net.cpp:146] Setting up norm2
I1106 17:52:48.135265 80671 net.cpp:153] Top shape: 256 256 13 13 (11075584)
I1106 17:52:48.135268 80671 net.cpp:161] Memory required for data: 1367175168
I1106 17:52:48.135272 80671 layer_factory.hpp:77] Creating layer conv3
I1106 17:52:48.135275 80671 layer_factory.cpp:59] Use CONVOLUTION layer POWERED by CAFFE engine.
I1106 17:52:48.135282 80671 net.cpp:108] Creating Layer conv3
I1106 17:52:48.135284 80671 net.cpp:437] conv3 <- norm2
I1106 17:52:48.135289 80671 net.cpp:411] conv3 -> conv3
I1106 17:52:48.143996 80671 net.cpp:146] Setting up conv3
I1106 17:52:48.144017 80671 net.cpp:153] Top shape: 256 384 13 13 (16613376)
I1106 17:52:48.144021 80671 net.cpp:161] Memory required for data: 1433628672
I1106 17:52:48.144029 80671 layer_factory.hpp:77] Creating layer relu3
I1106 17:52:48.144035 80671 net.cpp:108] Creating Layer relu3
I1106 17:52:48.144039 80671 net.cpp:437] relu3 <- conv3
I1106 17:52:48.144044 80671 net.cpp:398] relu3 -> conv3 (in-place)
I1106 17:52:48.144050 80671 net.cpp:146] Setting up relu3
I1106 17:52:48.144054 80671 net.cpp:153] Top shape: 256 384 13 13 (16613376)
I1106 17:52:48.144057 80671 net.cpp:161] Memory required for data: 1500082176
I1106 17:52:48.144060 80671 layer_factory.hpp:77] Creating layer conv4
I1106 17:52:48.144065 80671 layer_factory.cpp:59] Use CONVOLUTION layer POWERED by CAFFE engine.
I1106 17:52:48.144070 80671 net.cpp:108] Creating Layer conv4
I1106 17:52:48.144074 80671 net.cpp:437] conv4 <- conv3
I1106 17:52:48.144079 80671 net.cpp:411] conv4 -> conv4
I1106 17:52:48.150719 80671 net.cpp:146] Setting up conv4
I1106 17:52:48.150738 80671 net.cpp:153] Top shape: 256 384 13 13 (16613376)
I1106 17:52:48.150740 80671 net.cpp:161] Memory required for data: 1566535680
I1106 17:52:48.150748 80671 layer_factory.hpp:77] Creating layer relu4
I1106 17:52:48.150753 80671 net.cpp:108] Creating Layer relu4
I1106 17:52:48.150758 80671 net.cpp:437] relu4 <- conv4
I1106 17:52:48.150763 80671 net.cpp:398] relu4 -> conv4 (in-place)
I1106 17:52:48.150775 80671 net.cpp:146] Setting up relu4
I1106 17:52:48.150779 80671 net.cpp:153] Top shape: 256 384 13 13 (16613376)
I1106 17:52:48.150782 80671 net.cpp:161] Memory required for data: 1632989184
I1106 17:52:48.150785 80671 layer_factory.hpp:77] Creating layer conv5
I1106 17:52:48.150789 80671 layer_factory.cpp:59] Use CONVOLUTION layer POWERED by CAFFE engine.
I1106 17:52:48.150795 80671 net.cpp:108] Creating Layer conv5
I1106 17:52:48.150799 80671 net.cpp:437] conv5 <- conv4
I1106 17:52:48.150804 80671 net.cpp:411] conv5 -> conv5
I1106 17:52:48.155313 80671 net.cpp:146] Setting up conv5
I1106 17:52:48.155328 80671 net.cpp:153] Top shape: 256 256 13 13 (11075584)
I1106 17:52:48.155331 80671 net.cpp:161] Memory required for data: 1677291520
I1106 17:52:48.155339 80671 layer_factory.hpp:77] Creating layer relu5
I1106 17:52:48.155345 80671 net.cpp:108] Creating Layer relu5
I1106 17:52:48.155349 80671 net.cpp:437] relu5 <- conv5
I1106 17:52:48.155354 80671 net.cpp:398] relu5 -> conv5 (in-place)
I1106 17:52:48.155359 80671 net.cpp:146] Setting up relu5
I1106 17:52:48.155364 80671 net.cpp:153] Top shape: 256 256 13 13 (11075584)
I1106 17:52:48.155366 80671 net.cpp:161] Memory required for data: 1721593856
I1106 17:52:48.155369 80671 layer_factory.hpp:77] Creating layer pool5
I1106 17:52:48.155375 80671 net.cpp:108] Creating Layer pool5
I1106 17:52:48.155377 80671 net.cpp:437] pool5 <- conv5
I1106 17:52:48.155382 80671 net.cpp:411] pool5 -> pool5
I1106 17:52:48.155412 80671 net.cpp:146] Setting up pool5
I1106 17:52:48.155418 80671 net.cpp:153] Top shape: 256 256 6 6 (2359296)
I1106 17:52:48.155421 80671 net.cpp:161] Memory required for data: 1731031040
I1106 17:52:48.155424 80671 layer_factory.hpp:77] Creating layer fc6
I1106 17:52:48.155432 80671 net.cpp:108] Creating Layer fc6
I1106 17:52:48.155436 80671 net.cpp:437] fc6 <- pool5
I1106 17:52:48.155441 80671 net.cpp:411] fc6 -> fc6
I1106 17:52:48.534054 80671 net.cpp:146] Setting up fc6
I1106 17:52:48.534088 80671 net.cpp:153] Top shape: 256 4096 (1048576)
I1106 17:52:48.534091 80671 net.cpp:161] Memory required for data: 1735225344
I1106 17:52:48.534101 80671 layer_factory.hpp:77] Creating layer relu6
I1106 17:52:48.534111 80671 net.cpp:108] Creating Layer relu6
I1106 17:52:48.534114 80671 net.cpp:437] relu6 <- fc6
I1106 17:52:48.534121 80671 net.cpp:398] relu6 -> fc6 (in-place)
I1106 17:52:48.534128 80671 net.cpp:146] Setting up relu6
I1106 17:52:48.534132 80671 net.cpp:153] Top shape: 256 4096 (1048576)
I1106 17:52:48.534135 80671 net.cpp:161] Memory required for data: 1739419648
I1106 17:52:48.534138 80671 layer_factory.hpp:77] Creating layer drop6
I1106 17:52:48.534143 80671 net.cpp:108] Creating Layer drop6
I1106 17:52:48.534147 80671 net.cpp:437] drop6 <- fc6
I1106 17:52:48.534150 80671 net.cpp:398] drop6 -> fc6 (in-place)
I1106 17:52:48.534170 80671 net.cpp:146] Setting up drop6
I1106 17:52:48.534176 80671 net.cpp:153] Top shape: 256 4096 (1048576)
I1106 17:52:48.534179 80671 net.cpp:161] Memory required for data: 1743613952
I1106 17:52:48.534183 80671 layer_factory.hpp:77] Creating layer fc7
I1106 17:52:48.534188 80671 net.cpp:108] Creating Layer fc7
I1106 17:52:48.534193 80671 net.cpp:437] fc7 <- fc6
I1106 17:52:48.534196 80671 net.cpp:411] fc7 -> fc7
I1106 17:52:48.696559 80671 net.cpp:146] Setting up fc7
I1106 17:52:48.696595 80671 net.cpp:153] Top shape: 256 4096 (1048576)
I1106 17:52:48.696599 80671 net.cpp:161] Memory required for data: 1747808256
I1106 17:52:48.696609 80671 layer_factory.hpp:77] Creating layer relu7
I1106 17:52:48.696619 80671 net.cpp:108] Creating Layer relu7
I1106 17:52:48.696635 80671 net.cpp:437] relu7 <- fc7
I1106 17:52:48.696642 80671 net.cpp:398] relu7 -> fc7 (in-place)
I1106 17:52:48.696650 80671 net.cpp:146] Setting up relu7
I1106 17:52:48.696655 80671 net.cpp:153] Top shape: 256 4096 (1048576)
I1106 17:52:48.696657 80671 net.cpp:161] Memory required for data: 1752002560
I1106 17:52:48.696660 80671 layer_factory.hpp:77] Creating layer drop7
I1106 17:52:48.696666 80671 net.cpp:108] Creating Layer drop7
I1106 17:52:48.696671 80671 net.cpp:437] drop7 <- fc7
I1106 17:52:48.696676 80671 net.cpp:398] drop7 -> fc7 (in-place)
I1106 17:52:48.696691 80671 net.cpp:146] Setting up drop7
I1106 17:52:48.696696 80671 net.cpp:153] Top shape: 256 4096 (1048576)
I1106 17:52:48.696699 80671 net.cpp:161] Memory required for data: 1756196864
I1106 17:52:48.696702 80671 layer_factory.hpp:77] Creating layer fc8
I1106 17:52:48.696709 80671 net.cpp:108] Creating Layer fc8
I1106 17:52:48.696712 80671 net.cpp:437] fc8 <- fc7
I1106 17:52:48.696717 80671 net.cpp:411] fc8 -> fc8
I1106 17:52:48.736240 80671 net.cpp:146] Setting up fc8
I1106 17:52:48.736271 80671 net.cpp:153] Top shape: 256 1000 (256000)
I1106 17:52:48.736275 80671 net.cpp:161] Memory required for data: 1757220864
I1106 17:52:48.736284 80671 layer_factory.hpp:77] Creating layer loss
I1106 17:52:48.736294 80671 net.cpp:108] Creating Layer loss
I1106 17:52:48.736297 80671 net.cpp:437] loss <- fc8
I1106 17:52:48.736302 80671 net.cpp:437] loss <- label
I1106 17:52:48.736310 80671 net.cpp:411] loss -> loss
I1106 17:52:48.736320 80671 layer_factory.hpp:77] Creating layer loss
…
I1106 17:52:48.737356 80671 net.cpp:325] The NetState phase (1) differed from the phase (0) specified by a rule in layer data
I1106 17:52:48.737514 80671 net.cpp:63] Initializing net from parameters: 
name: "CaffeNet"
state {
  phase: TEST
}
layer {
  name: "data"
  type: "Data"
  top: "data"
  top: "label"
  include {
    phase: TEST
  }
  transform_param {
    mirror: false
    crop_size: 227
    mean_file: "data/ilsvrc12/imagenet_mean.binaryproto"
  }
  data_param {
    source: "examples/imagenet/ilsvrc12_val_lmdb"
    batch_size: 50
    backend: LMDB
  }
}
layer {
  name: "conv1"
  type: "Convolution"
  bottom: "data"
  top: "conv1"
  param {
    lr_mult: 1
    decay_mult: 1
  }
  param {
    lr_mult: 2
    decay_mult: 0
  }
  convolution_param {
    num_output: 96
    kernel_size: 11
    stride: 4
    weight_filler {
      type: "gaussian"
      std: 0.01
    }
    bias_filler {
      type: "constant"
      value: 0
    }
    engine: CAFFE
  }
}
layer {
  name: "relu1"
  type: "ReLU"
  bottom: "conv1"
  top: "conv1"
}
layer {
  name: "pool1"
  type: "Pooling"
  bottom: "conv1"
  top: "pool1"
  pooling_param {
    pool: MAX
    kernel_size: 3
    stride: 2
  }
}
layer {
  name: "norm1"
  type: "LRN"
  bottom: "pool1"
  top: "norm1"
  lrn_param {
    local_size: 5
    alpha: 0.0001
    beta: 0.75
  }
}
layer {
  name: "conv2"
  type: "Convolution"
  bottom: "norm1"
  top: "conv2"
  param {
    lr_mult: 1
    decay_mult: 1
  }
  param {
    lr_mult: 2
    decay_mult: 0
  }
  convolution_param {
    num_output: 256
    pad: 2
    kernel_size: 5
    group: 2
    weight_filler {
      type: "gaussian"
      std: 0.01
    }
    bias_filler {
      type: "constant"
      value: 1
    }
    engine: CAFFE
  }
}
layer {
  name: "relu2"
  type: "ReLU"
  bottom: "conv2"
  top: "conv2"
}
layer {
  name: "pool2"
  type: "Pooling"
  bottom: "conv2"
  top: "pool2"
  pooling_param {
    pool: MAX
    kernel_size: 3
    stride: 2
  }
}
layer {
  name: "norm2"
  type: "LRN"
  bottom: "pool2"
  top: "norm2"
  lrn_param {
    local_size: 5
    alpha: 0.0001
    beta: 0.75
  }
}
layer {
  name: "conv3"
  type: "Convolution"
  bottom: "norm2"
  top: "conv3"
  param {
    lr_mult: 1
    decay_mult: 1
  }
  param {
    lr_mult: 2
    decay_mult: 0
  }
  convolution_param {
    num_output: 384
    pad: 1
    kernel_size: 3
    weight_filler {
      type: "gaussian"
      std: 0.01
    }
    bias_filler {
      type: "constant"
      value: 0
    }
    engine: CAFFE
  }
}
layer {
  name: "relu3"
  type: "ReLU"
  bottom: "conv3"
  top: "conv3"
}
layer {
  name: "conv4"
  type: "Convolution"
  bottom: "conv3"
  top: "conv4"
  param {
    lr_mult: 1
    decay_mult: 1
  }
  param {
    lr_mult: 2
    decay_mult: 0
  }
  convolution_param {
    num_output: 384
    pad: 1
    kernel_size: 3
    group: 2
    weight_filler {
      type: "gaussian"
      std: 0.01
    }
    bias_filler {
      type: "constant"
      value: 1
    }
    engine: CAFFE
  }
}
layer {
  name: "relu4"
  type: "ReLU"
  bottom: "conv4"
  top: "conv4"
}
layer {
  name: "conv5"
  type: "Convolution"
  bottom: "conv4"
  top: "conv5"
  param {
    lr_mult: 1
    decay_mult: 1
  }
  param {
    lr_mult: 2
    decay_mult: 0
  }
  convolution_param {
    num_output: 256
    pad: 1
    kernel_size: 3
    group: 2
    weight_filler {
      type: "gaussian"
      std: 0.01
    }
    bias_filler {
      type: "constant"
      value: 1
    }
    engine: CAFFE
  }
}
layer {
  name: "relu5"
  type: "ReLU"
  bottom: "conv5"
  top: "conv5"
}
layer {
  name: "pool5"
  type: "Pooling"
  bottom: "conv5"
  top: "pool5"
  pooling_param {
    pool: MAX
    kernel_size: 3
    stride: 2
  }
}
layer {
  name: "fc6"
  type: "InnerProduct"
  bottom: "pool5"
  top: "fc6"
  param {
    lr_mult: 1
    decay_mult: 1
  }
  param {
    lr_mult: 2
    decay_mult: 0
  }
  inner_product_param {
    num_output: 4096
    weight_filler {
      type: "gaussian"
      std: 0.005
    }
    bias_filler {
      type: "constant"
      value: 1
    }
  }
}
layer {
  name: "relu6"
  type: "ReLU"
  bottom: "fc6"
  top: "fc6"
}
layer {
  name: "drop6"
  type: "Dropout"
  bottom: "fc6"
  top: "fc6"
  dropout_param {
    dropout_ratio: 0.5
  }
}
layer {
  name: "fc7"
  type: "InnerProduct"
  bottom: "fc6"
  top: "fc7"
  param {
    lr_mult: 1
    decay_mult: 1
  }
  param {
    lr_mult: 2
    decay_mult: 0
  }
  inner_product_param {
    num_output: 4096
    weight_filler {
      type: "gaussian"
      std: 0.005
    }
    bias_filler {
      type: "constant"
      value: 1
    }
  }
}
layer {
  name: "relu7"
  type: "ReLU"
  bottom: "fc7"
  top: "fc7"
}
layer {
  name: "drop7"
  type: "Dropout"
  bottom: "fc7"
  top: "fc7"
  dropout_param {
    dropout_ratio: 0.5
  }
}
layer {
  name: "fc8"
  type: "InnerProduct"
  bottom: "fc7"
  top: "fc8"
  param {
    lr_mult: 1
    decay_mult: 1
  }
  param {
    lr_mult: 2
    decay_mult: 0
  }
  inner_product_param {
    num_output: 1000
    weight_filler {
      type: "gaussian"
      std: 0.01
    }
    bias_filler {
      type: "constant"
      value: 0
    }
  }
}
layer {
  name: "accuracy"
  type: "Accuracy"
  bottom: "fc8"
  bottom: "label"
  top: "accuracy"
  include {
    phase: TEST
  }
}
layer {
  name: "loss"
  type: "SoftmaxWithLoss"
  bottom: "fc8"
  bottom: "label"
  top: "loss"
}
I1106 17:52:48.737598 80671 layer_factory.hpp:77] Creating layer data
I1106 17:52:48.753095 80671 db_lmdb.cpp:37] Opened lmdb examples/imagenet/ilsvrc12_val_lmdb
I1106 17:52:48.764339 80671 net.cpp:108] Creating Layer data
I1106 17:52:48.764379 80671 net.cpp:411] data -> data
I1106 17:52:48.764400 80671 net.cpp:411] data -> label
I1106 17:52:48.764417 80671 data_transformer.cpp:25] Loading mean file from: data/ilsvrc12/imagenet_mean.binaryproto
I1106 17:52:48.768833 80671 data_layer.cpp:45] output data size: 50,3,227,227
I1106 17:52:48.846036 80671 net.cpp:146] Setting up data
I1106 17:52:48.846084 80671 net.cpp:153] Top shape: 50 3 227 227 (7729350)
I1106 17:52:48.846092 80671 net.cpp:153] Top shape: 50 (50)
I1106 17:52:48.846097 80671 net.cpp:161] Memory required for data: 30917600
I1106 17:52:48.846105 80671 layer_factory.hpp:77] Creating layer label_data_1_split
I1106 17:52:48.846122 80671 net.cpp:108] Creating Layer label_data_1_split
I1106 17:52:48.846128 80671 net.cpp:437] label_data_1_split <- label
I1106 17:52:48.846138 80671 net.cpp:411] label_data_1_split -> label_data_1_split_0
I1106 17:52:48.846151 80671 net.cpp:411] label_data_1_split -> label_data_1_split_1
I1106 17:52:48.846287 80671 net.cpp:146] Setting up label_data_1_split
I1106 17:52:48.846300 80671 net.cpp:153] Top shape: 50 (50)
I1106 17:52:48.846307 80671 net.cpp:153] Top shape: 50 (50)
I1106 17:52:48.846312 80671 net.cpp:161] Memory required for data: 30918000
I1106 17:52:48.846316 80671 layer_factory.hpp:77] Creating layer conv1
I1106 17:52:48.846326 80671 layer_factory.cpp:59] Use CONVOLUTION layer POWERED by CAFFE engine.
I1106 17:52:48.846338 80671 net.cpp:108] Creating Layer conv1
I1106 17:52:48.846343 80671 net.cpp:437] conv1 <- data
I1106 17:52:48.846352 80671 net.cpp:411] conv1 -> conv1
I1106 17:52:48.847388 80671 net.cpp:146] Setting up conv1
I1106 17:52:48.847410 80671 net.cpp:153] Top shape: 50 96 55 55 (14520000)
I1106 17:52:48.847416 80671 net.cpp:161] Memory required for data: 88998000
I1106 17:52:48.847432 80671 layer_factory.hpp:77] Creating layer relu1
I1106 17:52:48.847442 80671 net.cpp:108] Creating Layer relu1
I1106 17:52:48.847448 80671 net.cpp:437] relu1 <- conv1
I1106 17:52:48.847455 80671 net.cpp:398] relu1 -> conv1 (in-place)
I1106 17:52:48.847465 80671 net.cpp:146] Setting up relu1
I1106 17:52:48.847472 80671 net.cpp:153] Top shape: 50 96 55 55 (14520000)
I1106 17:52:48.847476 80671 net.cpp:161] Memory required for data: 147078000
I1106 17:52:48.847482 80671 layer_factory.hpp:77] Creating layer pool1
I1106 17:52:48.847491 80671 net.cpp:108] Creating Layer pool1
I1106 17:52:48.847496 80671 net.cpp:437] pool1 <- conv1
I1106 17:52:48.847503 80671 net.cpp:411] pool1 -> pool1
I1106 17:52:48.847553 80671 net.cpp:146] Setting up pool1
I1106 17:52:48.847561 80671 net.cpp:153] Top shape: 50 96 27 27 (3499200)
I1106 17:52:48.847576 80671 net.cpp:161] Memory required for data: 161074800
I1106 17:52:48.847602 80671 layer_factory.hpp:77] Creating layer norm1
I1106 17:52:48.847611 80671 net.cpp:108] Creating Layer norm1
I1106 17:52:48.847616 80671 net.cpp:437] norm1 <- pool1
I1106 17:52:48.847623 80671 net.cpp:411] norm1 -> norm1
I1106 17:52:48.850644 80671 net.cpp:146] Setting up norm1
I1106 17:52:48.850670 80671 net.cpp:153] Top shape: 50 96 27 27 (3499200)
I1106 17:52:48.850675 80671 net.cpp:161] Memory required for data: 175071600
I1106 17:52:48.850682 80671 layer_factory.hpp:77] Creating layer conv2
I1106 17:52:48.850698 80671 layer_factory.cpp:59] Use CONVOLUTION layer POWERED by CAFFE engine.
I1106 17:52:48.850708 80671 net.cpp:108] Creating Layer conv2
I1106 17:52:48.850714 80671 net.cpp:437] conv2 <- norm1
I1106 17:52:48.850724 80671 net.cpp:411] conv2 -> conv2
I1106 17:52:48.855850 80671 net.cpp:146] Setting up conv2
I1106 17:52:48.855870 80671 net.cpp:153] Top shape: 50 256 27 27 (9331200)
I1106 17:52:48.855875 80671 net.cpp:161] Memory required for data: 212396400
I1106 17:52:48.855886 80671 layer_factory.hpp:77] Creating layer relu2
I1106 17:52:48.855895 80671 net.cpp:108] Creating Layer relu2
I1106 17:52:48.855901 80671 net.cpp:437] relu2 <- conv2
I1106 17:52:48.855908 80671 net.cpp:398] relu2 -> conv2 (in-place)
I1106 17:52:48.855916 80671 net.cpp:146] Setting up relu2
I1106 17:52:48.855923 80671 net.cpp:153] Top shape: 50 256 27 27 (9331200)
I1106 17:52:48.855927 80671 net.cpp:161] Memory required for data: 249721200
I1106 17:52:48.855932 80671 layer_factory.hpp:77] Creating layer pool2
I1106 17:52:48.855940 80671 net.cpp:108] Creating Layer pool2
I1106 17:52:48.855945 80671 net.cpp:437] pool2 <- conv2
I1106 17:52:48.855952 80671 net.cpp:411] pool2 -> pool2
I1106 17:52:48.856001 80671 net.cpp:146] Setting up pool2
I1106 17:52:48.856011 80671 net.cpp:153] Top shape: 50 256 13 13 (2163200)
I1106 17:52:48.856015 80671 net.cpp:161] Memory required for data: 258374000
I1106 17:52:48.856020 80671 layer_factory.hpp:77] Creating layer norm2
I1106 17:52:48.856027 80671 net.cpp:108] Creating Layer norm2
I1106 17:52:48.856032 80671 net.cpp:437] norm2 <- pool2
I1106 17:52:48.856040 80671 net.cpp:411] norm2 -> norm2
I1106 17:52:48.856079 80671 net.cpp:146] Setting up norm2
I1106 17:52:48.856087 80671 net.cpp:153] Top shape: 50 256 13 13 (2163200)
I1106 17:52:48.856092 80671 net.cpp:161] Memory required for data: 267026800
I1106 17:52:48.856096 80671 layer_factory.hpp:77] Creating layer conv3
I1106 17:52:48.856103 80671 layer_factory.cpp:59] Use CONVOLUTION layer POWERED by CAFFE engine.
I1106 17:52:48.856112 80671 net.cpp:108] Creating Layer conv3
I1106 17:52:48.856117 80671 net.cpp:437] conv3 <- norm2
I1106 17:52:48.856124 80671 net.cpp:411] conv3 -> conv3
I1106 17:52:48.869550 80671 net.cpp:146] Setting up conv3
I1106 17:52:48.869568 80671 net.cpp:153] Top shape: 50 384 13 13 (3244800)
I1106 17:52:48.869573 80671 net.cpp:161] Memory required for data: 280006000
I1106 17:52:48.869585 80671 layer_factory.hpp:77] Creating layer relu3
I1106 17:52:48.869593 80671 net.cpp:108] Creating Layer relu3
I1106 17:52:48.869598 80671 net.cpp:437] relu3 <- conv3
I1106 17:52:48.869606 80671 net.cpp:398] relu3 -> conv3 (in-place)
I1106 17:52:48.869613 80671 net.cpp:146] Setting up relu3
I1106 17:52:48.869619 80671 net.cpp:153] Top shape: 50 384 13 13 (3244800)
I1106 17:52:48.869623 80671 net.cpp:161] Memory required for data: 292985200
I1106 17:52:48.869627 80671 layer_factory.hpp:77] Creating layer conv4
I1106 17:52:48.869634 80671 layer_factory.cpp:59] Use CONVOLUTION layer POWERED by CAFFE engine.
I1106 17:52:48.869642 80671 net.cpp:108] Creating Layer conv4
I1106 17:52:48.869647 80671 net.cpp:437] conv4 <- conv3
I1106 17:52:48.869654 80671 net.cpp:411] conv4 -> conv4
I1106 17:52:48.879324 80671 net.cpp:146] Setting up conv4
I1106 17:52:48.879343 80671 net.cpp:153] Top shape: 50 384 13 13 (3244800)
I1106 17:52:48.879348 80671 net.cpp:161] Memory required for data: 305964400
I1106 17:52:48.879355 80671 layer_factory.hpp:77] Creating layer relu4
I1106 17:52:48.879364 80671 net.cpp:108] Creating Layer relu4
I1106 17:52:48.879369 80671 net.cpp:437] relu4 <- conv4
I1106 17:52:48.879387 80671 net.cpp:398] relu4 -> conv4 (in-place)
I1106 17:52:48.879396 80671 net.cpp:146] Setting up relu4
I1106 17:52:48.879402 80671 net.cpp:153] Top shape: 50 384 13 13 (3244800)
I1106 17:52:48.879406 80671 net.cpp:161] Memory required for data: 318943600
I1106 17:52:48.879410 80671 layer_factory.hpp:77] Creating layer conv5
I1106 17:52:48.879416 80671 layer_factory.cpp:59] Use CONVOLUTION layer POWERED by CAFFE engine.
I1106 17:52:48.879428 80671 net.cpp:108] Creating Layer conv5
I1106 17:52:48.879432 80671 net.cpp:437] conv5 <- conv4
I1106 17:52:48.879441 80671 net.cpp:411] conv5 -> conv5
I1106 17:52:48.885924 80671 net.cpp:146] Setting up conv5
I1106 17:52:48.885941 80671 net.cpp:153] Top shape: 50 256 13 13 (2163200)
I1106 17:52:48.885946 80671 net.cpp:161] Memory required for data: 327596400
I1106 17:52:48.885957 80671 layer_factory.hpp:77] Creating layer relu5
I1106 17:52:48.885963 80671 net.cpp:108] Creating Layer relu5
I1106 17:52:48.885968 80671 net.cpp:437] relu5 <- conv5
I1106 17:52:48.885974 80671 net.cpp:398] relu5 -> conv5 (in-place)
I1106 17:52:48.885982 80671 net.cpp:146] Setting up relu5
I1106 17:52:48.885988 80671 net.cpp:153] Top shape: 50 256 13 13 (2163200)
I1106 17:52:48.885993 80671 net.cpp:161] Memory required for data: 336249200
I1106 17:52:48.885996 80671 layer_factory.hpp:77] Creating layer pool5
I1106 17:52:48.886004 80671 net.cpp:108] Creating Layer pool5
I1106 17:52:48.886008 80671 net.cpp:437] pool5 <- conv5
I1106 17:52:48.886014 80671 net.cpp:411] pool5 -> pool5
I1106 17:52:48.886055 80671 net.cpp:146] Setting up pool5
I1106 17:52:48.886063 80671 net.cpp:153] Top shape: 50 256 6 6 (460800)
I1106 17:52:48.886067 80671 net.cpp:161] Memory required for data: 338092400
I1106 17:52:48.886071 80671 layer_factory.hpp:77] Creating layer fc6
I1106 17:52:48.886080 80671 net.cpp:108] Creating Layer fc6
I1106 17:52:48.886085 80671 net.cpp:437] fc6 <- pool5
I1106 17:52:48.886090 80671 net.cpp:411] fc6 -> fc6
I1106 17:52:49.257781 80671 net.cpp:146] Setting up fc6
I1106 17:52:49.257817 80671 net.cpp:153] Top shape: 50 4096 (204800)
I1106 17:52:49.257820 80671 net.cpp:161] Memory required for data: 338911600
I1106 17:52:49.257830 80671 layer_factory.hpp:77] Creating layer relu6
I1106 17:52:49.257838 80671 net.cpp:108] Creating Layer relu6
I1106 17:52:49.257843 80671 net.cpp:437] relu6 <- fc6
I1106 17:52:49.257849 80671 net.cpp:398] relu6 -> fc6 (in-place)
I1106 17:52:49.257858 80671 net.cpp:146] Setting up relu6
I1106 17:52:49.257861 80671 net.cpp:153] Top shape: 50 4096 (204800)
I1106 17:52:49.257864 80671 net.cpp:161] Memory required for data: 339730800
I1106 17:52:49.257866 80671 layer_factory.hpp:77] Creating layer drop6
I1106 17:52:49.257872 80671 net.cpp:108] Creating Layer drop6
I1106 17:52:49.257875 80671 net.cpp:437] drop6 <- fc6
I1106 17:52:49.257879 80671 net.cpp:398] drop6 -> fc6 (in-place)
I1106 17:52:49.257902 80671 net.cpp:146] Setting up drop6
I1106 17:52:49.257907 80671 net.cpp:153] Top shape: 50 4096 (204800)
I1106 17:52:49.257910 80671 net.cpp:161] Memory required for data: 340550000
I1106 17:52:49.257913 80671 layer_factory.hpp:77] Creating layer fc7
I1106 17:52:49.257920 80671 net.cpp:108] Creating Layer fc7
I1106 17:52:49.257923 80671 net.cpp:437] fc7 <- fc6
I1106 17:52:49.257928 80671 net.cpp:411] fc7 -> fc7
I1106 17:52:49.419817 80671 net.cpp:146] Setting up fc7
I1106 17:52:49.419852 80671 net.cpp:153] Top shape: 50 4096 (204800)
I1106 17:52:49.419854 80671 net.cpp:161] Memory required for data: 341369200
I1106 17:52:49.419864 80671 layer_factory.hpp:77] Creating layer relu7
I1106 17:52:49.419873 80671 net.cpp:108] Creating Layer relu7
I1106 17:52:49.419878 80671 net.cpp:437] relu7 <- fc7
I1106 17:52:49.419883 80671 net.cpp:398] relu7 -> fc7 (in-place)
I1106 17:52:49.419891 80671 net.cpp:146] Setting up relu7
I1106 17:52:49.419895 80671 net.cpp:153] Top shape: 50 4096 (204800)
I1106 17:52:49.419898 80671 net.cpp:161] Memory required for data: 342188400
I1106 17:52:49.419901 80671 layer_factory.hpp:77] Creating layer drop7
I1106 17:52:49.419920 80671 net.cpp:108] Creating Layer drop7
I1106 17:52:49.419924 80671 net.cpp:437] drop7 <- fc7
I1106 17:52:49.419927 80671 net.cpp:398] drop7 -> fc7 (in-place)
I1106 17:52:49.419951 80671 net.cpp:146] Setting up drop7
I1106 17:52:49.419957 80671 net.cpp:153] Top shape: 50 4096 (204800)
I1106 17:52:49.419960 80671 net.cpp:161] Memory required for data: 343007600
I1106 17:52:49.419963 80671 layer_factory.hpp:77] Creating layer fc8
I1106 17:52:49.419973 80671 net.cpp:108] Creating Layer fc8
I1106 17:52:49.419977 80671 net.cpp:437] fc8 <- fc7
I1106 17:52:49.419982 80671 net.cpp:411] fc8 -> fc8
I1106 17:52:49.459427 80671 net.cpp:146] Setting up fc8
I1106 17:52:49.459462 80671 net.cpp:153] Top shape: 50 1000 (50000)
I1106 17:52:49.459465 80671 net.cpp:161] Memory required for data: 343207600
I1106 17:52:49.459475 80671 layer_factory.hpp:77] Creating layer fc8_fc8_0_split
I1106 17:52:49.459483 80671 net.cpp:108] Creating Layer fc8_fc8_0_split
I1106 17:52:49.459488 80671 net.cpp:437] fc8_fc8_0_split <- fc8
I1106 17:52:49.459494 80671 net.cpp:411] fc8_fc8_0_split -> fc8_fc8_0_split_0
I1106 17:52:49.459502 80671 net.cpp:411] fc8_fc8_0_split -> fc8_fc8_0_split_1
I1106 17:52:49.459537 80671 net.cpp:146] Setting up fc8_fc8_0_split
I1106 17:52:49.459543 80671 net.cpp:153] Top shape: 50 1000 (50000)
I1106 17:52:49.459547 80671 net.cpp:153] Top shape: 50 1000 (50000)
I1106 17:52:49.459549 80671 net.cpp:161] Memory required for data: 343607600
I1106 17:52:49.459553 80671 layer_factory.hpp:77] Creating layer accuracy
I1106 17:52:49.459559 80671 net.cpp:108] Creating Layer accuracy
I1106 17:52:49.459563 80671 net.cpp:437] accuracy <- fc8_fc8_0_split_0
I1106 17:52:49.459566 80671 net.cpp:437] accuracy <- label_data_1_split_0
I1106 17:52:49.459571 80671 net.cpp:411] accuracy -> accuracy
…
